public/model_full.onnx (onnx, 759902 bytes, 15 tensors)

fc1.weight f4 [64, 64]
00000000: 3ef6 53bd 4801 353e e38d 8f3e f23a ce3e
00000010: cc57 433e 9403 8a3d 9700 82be e22b 863e
00000020: 85f9 07bf be6f 883d cdfb 46be af52 5dbd
00000030: 01e1 86be 038d b7be de8f 4ebe 1c4f 443e
00000040: 4506 09bf 314f 1a3f 82cd a53e 645f cd3c
00000050: a40f 39be c045 d73e d90b b3be f2d1 8fbe
00000060: 5f5c 4dbe cd11 863e 9400 2b3e d616 93bd
00000070: 974f 12bf 8447 ebbe d9a1 a5bd 0f54 b7bd
00000080: 7d59 51bd be63 5bbe 70db cb3c ea0b b3bd
00000090: a2c5 24bd 5584 0e3f 610e 36be 86e4 cc3e
000000a0: ed17 7e3f f367 c5be 69b4 aa3e f671 473e
000000b0: 089d 663f 4f3e fdbc b881 eb3d 8f3e ecbe
000000c0: cbb3 0cbf 45a7 e9bd 3a11 c8bb 11ea 903d
000000d0: e2f2 873d a6e2 70bc 73b7 5f3e 3158 0abf
000000e0: dd8b 9cbe d47a ebbd 2871 823d fa39 c03c
000000f0: fc83 9fbe b217 88bd 6ec2 0dbf 175c 10be
00000100: 0376 eb3e 5833 02bf 3efa 783e 652d 3a3e
00000110: 781c 443e c8cf 453f 0f4b 693e a7ba b33d
00000120: 43ef e23d e26d 8f3e e64f a63e 699c f93d
00000130: f3db d6be 2f52 223f f68d 023f b9e8 41bf
00000140: 1442 623d 9f19 e7be 0cdb 9abe 5dcb e2bd
00000150: f77d 08be f423 3d3e fc26 0b3f 551f ab3d
00000160: 54c3 82bd 192d 1abe 4aea b3be 1054 673e
00000170: 7a02 e83e 801d a63d 3e02 57be a1ef dbbe
00000180: eef4 0cbe 4fae 3d3f f6d9 593e 61f7 da3d
00000190: b4e7 70be da7d 583e 1e48 cf3d 50fc 8dbe
000001a0: 660a 34bf 4288 853e 2d67 f9be af04 a43e
000001b0: b77a a2bd 7912 00bf 0f61 6ebe 9163 143f
000001c0: 7874 53bd 7bd5 ab3e d3b2 c2be 1020 abbd
000001d0: 786a 93be c454 ffbd 7042 fabc 5c67 9fbe
000001e0: b726 ba3e 40ed 073f 9884 bdbd 347a 393f
000001f0: baff 423d ff5e 77be 2c23 413f 77a4 aabe
00000200: e94d 15bd f22a 90ba 2faa d7bd 4db1 be3d
00000210: 00ed 62be ea60 3bbe b090 35be 94a5 93be
00000220: 048a 593d 835a e6bd 04e9 aabd a78f ecbd
00000230: 734d 82be d8e6 c2bb 6f49 97bd f915 b63e
00000240: 7388 213e 1c39 cb3c 2a94 63be 9b17 9c3e
00000250: 1898 cf3e 7776 a93c bc42 f43d 4232 95be
00000260: 7b23 ac3e ea19 3ebe 4317 5ebe 1d26 143e
00000270: e5b0 c93e e99a 533d 5449 2a3d 15ab 64bd
00000280: b213 293e c391 f83d 5d8a 6dbe 02b5 adbc
00000290: 258f 29be 2eb5 9f3d 37e3 143d f57a 053e
000002a0: 0d57 e23d 7e89 eb3e aaae 693e 75bf 3dbe
000002b0: 4865 813d 3459 97bd 2a9f cfbe 3ad8 09be
000002c0: e492 f0bd 56b4 af3d 5b3d 42be 0089 7c3e
000002d0: c8d6 ff3c ca0d f7bb fdbc 33be 920b c83c
000002e0: 8b95 8a3e bdb4 a03e 56f4 2fbe ab65 973e
000002f0: 9f41 03ba b35d 423e d33f 22bd 4d7e 8abd
00000300: 3a6d 833e 2c85 723e 701b 843e 38fb 21bf
00000310: 6e14 0c3e d316 71be 6b20 203e 9d8b 6dbd
00000320: dedc 183d 1767 c1bd 4f0d fcbd 2487 adbe
00000330: f171 d63e 8c93 023e e3b3 303f 93d9 f1be
00000340: 3b1e edbe 9675 d7be b4c2 f03e 5261 903a
00000350: 5b6c 19be 4dd8 b4bc 70bb 403d cea1 2fbe
00000360: 2d4e d73e d453 5a3e 8039 5fbe 84cb fc3e
00000370: 9870 6a3e 4950 023f 946f ed3e 1c90 86bd
00000380: 7e0a eebe 78dc 1fbe 0c7a 46be 1d76 333d
00000390: 7225 903e 1e44 a4bd 78b7 933e 94ee d2be
000003a0: 9e27 80be bf4e c23e f075 6c3e d00d 94be
000003b0: 74d4 08bf b8c6 9f3e 9ccc aabd 1692 953e
000003c0: c46b 043f 96ca 90be 1e55 ab3e f190 0abe
000003d0: b791 3d3e ed70 cb3d 4800 e8bd 87b9 2ebd
000003e0: dec3 cdba a1c4 583d 053f 4b3e 69c1 a5be
000003f0: 9f85 093f ec1a 70bd 921d f0be 7dd8 30bd
-0.051748507 0.1767627 0.28037938 0.40279347 0.1907646 0.06738964 -0.25391075 0.26205355
-0.5311511 0.06661938 -0.19431992 -0.05403393 -0.2634354 -0.3584977 -0.20172068 0.19170803
-0.5352519 0.60277086 0.32383353 0.0250699 -0.18072373 0.42045403 -0.34969977 -0.28089863
-0.20054768 0.26185456 0.1669944 -0.0718209 -0.57152694 -0.45953 -0.080875106 -0.0895158
-0.051110733 -0.21424767 0.02488491 -0.08742507 -0.04022754 0.5567067 -0.17778923 0.400181
0.9925526 -0.3855587 0.33340767 0.19477066 0.9008336 -0.0309135 0.11499351 -0.46141478
-0.5496184 -0.11408857 -0.006105569 0.070758946 0.06638123 -0.014702475 0.21847324 -0.5404082
-0.30575457 -0.11498037 0.06369239 0.023465145 -0.31155384 -0.066451445 -0.553748 -0.1409763
0.45988473 -0.50859594 0.2431421 0.18181379 0.19151485 0.77270174 0.22782539 0.087758355
0.11080792 0.2801352 0.32482833 0.12188036 -0.41964683 0.6340665 0.50997865 -0.7574573
0.0552388 -0.45136735 -0.30245245 -0.11073945 -0.13329302 0.18470746 0.5435636 0.083555855
-0.06384912 -0.15056266 -0.35139686 0.22590661 0.4531439 0.081110954 -0.20996949 -0.4295626
-0.13765308 0.740941 0.21274552 0.10691715 -0.23525888 0.21141759 0.10121177 -0.27731562
-0.70328367 0.2608052 -0.4871153 0.32034823 -0.07933562 -0.5002819 -0.23279212 0.57964426
-0.051624745 0.3356131 -0.38027057 -0.08355725 -0.28792167 -0.1246734 -0.030549258 -0.31133544
0.36357662 0.5309639 -0.09253806 0.7245209 0.04760716 -0.24157332 0.75444293 -0.33328602
-0.036451254 -0.0010999127 -0.10530507 0.09311161 -0.22160721 -0.18298689 -0.17730975 -0.28837264
0.053110138 -0.112477325 -0.083452255 -0.11550837 -0.25449714 -0.005947929 -0.07387053 0.3556364
0.15774707 0.024807505 -0.22224489 0.3048676 0.40545726 0.020686371 0.11926791 -0.29139906
0.3362082 -0.18564573 -0.21688561 0.14467664 0.39392772 0.051661406 0.041573837 -0.05582722
0.1651142 0.12137177 -0.23197313 -0.021204475 -0.16558512 0.07798229 0.0363495 0.13035186
0.1105176 0.46003336 0.22820535 -0.18530066 0.06318146 -0.07390061 -0.4055112 -0.1346139
-0.11746767 0.08579318 -0.18968718 0.24661636 0.031230345 -0.0075394856 -0.17552562 0.02441958
0.27067217 0.31387892 -0.1718305 0.29569754 -0.0005007032 0.18981056 -0.03961165 -0.06762371
0.2566927 0.23683614 0.25802183 -0.63273954 0.13679668 -0.23543863 0.15637366 -0.057994474
0.03732001 -0.09443491 -0.12307226 -0.33892167 0.41883805 0.12751597 0.69024485 -0.47236308
-0.46312127 -0.42081898 0.47023547 0.0011015332 -0.1498274 -0.022075796 0.047053754 -0.17151567
0.4205183 0.2132104 -0.21799278 0.4937402 0.22894514 0.50903755 0.4637419 -0.065704554
-0.4649238 -0.15611446 -0.19382495 0.043813813 0.28153569 -0.08020805 0.28850913 -0.41197646
-0.25030226 0.37950704 0.23091865 -0.28916788 -0.5344918 0.31206298 -0.083398074 0.29213017
0.5172694 -0.2827956 0.33463377 -0.13531853 0.18512617 0.09933648 -0.11328179 -0.0426574
-0.0015698632 0.052921895 0.19848259 -0.32374123 0.53719515 -0.058619425 -0.4689756 -0.04317521

fc1.bias f4 [64]
00000000: 17e1 533d d181 f0bd 841e 0dbb 6aa2 84bd
00000010: ba6c cabd 581b c53c 51c0 cabb 1446 f4bd
00000020: 9ee8 2f3d d230 9a3c 6fea de3b 2a9c dbbd
00000030: 97d9 8dbd d246 43bd b424 a3bd 4b6d e9bc
00000040: 704b a8bc 617c f33c 417f 83bd 5b86 603b
00000050: 734b 43ba e91a 703d 0f5d 9abd 0703 9bbc
00000060: a948 06be adb7 7e3c d03d 1ebc 2ce5 1cb8
00000070: e32c 9c3a 2ac3 1dbd 553e ad3c 62ab 40bd
00000080: 038f 8abd d8b7 b7bc 9335 9abc 7c67 3abc
00000090: 45f5 ce3d 6cf5 d73a ac8a 713d 8bf6 843d
000000a0: 7c56 37bd 5e68 cc3a 44dd 03be 6277 14bd
000000b0: c7d8 16bd c3f6 b43c 15dc d13c b8b8 403d
000000c0: 6db7 41bb 4512 2cbd 8caa 1ebd e2d2 8c3c
000000d0: f555 06bd 324b eebc dfe6 3abd ac64 10bd
000000e0: 02ad daba 75e4 a0bc 56c3 92bd eec6 413d
000000f0: 3257 83bd 36bc 9bbc 10b2 033e 419a c3bd
0.051728334 -0.117435105 -0.0021533081 -0.064762905 -0.09884019 0.02406089 -0.0061874767 -0.11927429
0.04294645 0.018822107 0.006802849 -0.10723145 -0.069262676 -0.04767496 -0.07965985 -0.028494498
-0.020543784 0.029722394 -0.06420756 0.003425977 -0.00074499025 0.058619414 -0.07537281 -0.018922342
-0.13113655 0.015546721 -0.009658292 -3.740673e-05 0.0011915233 -0.0385162 0.021147886 -0.047038443
-0.067655586 -0.02242653 -0.018824374 -0.011377212 0.10105375 0.001647634 0.05897014 0.06492337
-0.044760212 0.0015595069 -0.12877375 -0.036246665 -0.03682783 0.022090321 0.025617639 0.04705116
-0.0029558793 -0.04200961 -0.038736865 0.0171904 -0.03279682 -0.02908859 -0.045630332 -0.03525226
-0.001668364 -0.019640187 -0.071661636 0.047308855 -0.064131156 -0.019010644 0.12860894 -0.09550906

fc2.weight f4 [32, 64]
00000000: 3c99 4c3e 843d 0fbe 9a32 8f3c d391 3d3e
00000010: ad3c 46bc 150f 5dbd f034 f23d ff53 46bd
00000020: c52a f0bd 2551 4f3e b060 3cbe 1ad3 81be
00000030: b212 66bd af40 a6be a60c 873d 4250 bf3d
00000040: a590 093e 969b d1bd b5d7 cb3c 3472 2bbc
00000050: 307d fabc 649e 82bd 97b9 d5bd 57d5 ca3d
00000060: 6893 4f3d 6101 793d c00f 49bd 7ec3 afbd
00000070: ded9 323d 1d8d 873d cb94 25bd e5a5 32bd
00000080: d7e5 32be 7543 ecbe 3623 733d f7ff 3d3e
00000090: e5f4 293e 3829 ac3e 9c94 bfbc b52e febd
000000a0: ecb1 15be 4072 cabd 67ee c9bc 2422 963d
000000b0: d61c 06be 32b6 dabd bf91 d53d 9dbd 3f3d
000000c0: e7d3 9ebd bee7 8abd 0cc8 78be d36c 29be
000000d0: 7cdb 103e 68bd 053d bbf9 c83e 40be c9bd
000000e0: f7ee 743b af26 1abe de0b 7bbe 6dc9 56bd
000000f0: 844d 803e 4ab2 56be a5ab a73d 56e3 f53d
00000100: 6aaa ed3d d0ba aabe 8e31 363d d52d eebd
00000110: d6c7 a83e 9858 a1bd 6d8d f3be 5acb f9be
00000120: 8468 b43d 56af 343e 5c75 873d 2d05 9a3e
00000130: c74a 67be 74ce 6dbe f761 55be a980 b2bd
00000140: fc8e 1ebd fcab 843d b36f f23c 7073 a3bc
00000150: bcf0 18be bbf8 863d 8d60 4dbe d486 1f3f
00000160: cd90 79bd a41f ec3d 8bb5 1f3d 9703 1e3d
00000170: a366 5cbe 58f7 4f3d c9b6 113e f010 5bbe
00000180: fda2 1ebb e651 8b3d 006e b2bd 1b14 36bd
00000190: 8cfd 913d 1f09 633e f6e6 453e 8b72 863e
000001a0: 82c3 09bf 617b a9be 0bcc 29bf 7f28 02be
000001b0: 4a9d bdbe c572 9cbc 167d 743e aaa5 573f
000001c0: 97c0 113d 8894 c5be 0819 ccbe 5d9c d8bd
000001d0: 5927 d43d bc48 39be f547 3fbe f515 16be
000001e0: be25 7fbe 142d 5b3c e890 753e a01c 433e
000001f0: 2ab4 02bd 9746 2f3e d731 ff3e 0705 25be
00000200: 99aa c43d 9552 98bd 820b df3d 9498 4c3d
00000210: b0ab 973a 4d33 373d 1b2d af3d ab68 d4bd
00000220: 736d 183e adc3 2bbe 29fc ecbc 7a39 21bf
00000230: d4af 963e f82b 0a3e a238 58be 6735 713d
00000240: adb7 933e ead5 9bbc 374e 89be 5073 64be
00000250: dbb7 a6be 4951 c0bd 8dbb 64be d377 db3d
00000260: 2ae4 c2be 0347 a43d 0015 66bc dd93 3fbd
00000270: 9ac6 85bc 6444 43bc b643 2a3e 57ca eb3b
00000280: 54e9 2e3e ffd5 3f3e fea3 d63d 9d67 093d
00000290: b10d 9dbe 53a1 c3be fa52 203e fb63 a33d
000002a0: 0555 9bbe 001c e33d aee5 44be 639d 24be
000002b0: 8630 d0bc 3e60 563c 50c5 0bbe 2a0d 063c
000002c0: 6870 a33b 6eec 253e 86a8 1c3e d744 173e
000002d0: 2f8c 873d a2b1 1c3e 0ecb 57bd 7e7c 5a3d
000002e0: 1bf7 94bd 5403 9bbd 9d81 b83c f393 0cbc
000002f0: fa88 fcbc a3e8 09be 8a7c acbd 67bd 80be
00000300: 26d9 b2be 3743 d53e fd06 4dbd c855 fb3d
00000310: c1ce a53e 405e 11bd 0b13 3fbb ae1e 4c3e
00000320: 574f b63c 3cee 173e 6a68 b63c ed0e 013f
00000330: a385 64bd 48c6 8ebd 9581 4e3e 4622 93bc
00000340: ed65 adbb 95e4 083e a26d 073e f78a b03e
00000350: 847e 963c d286 16be ca1b 07be 83cd d0bd
00000360: 254e 043f cd01 33bd af45 b6bd c2f3 86bd
00000370: ec0b d23c abc9 283b 55bd 47be 9f53 f7bc
00000380: d64a 283d fb7f cd3c 7522 c13d 7935 653d
00000390: 6735 703b 8397 df3d 77d4 933e 4366 88bd
000003a0: ad82 143e 7ad3 873d fe5e ce3d f766 b63d
000003b0: c224 11bc 6903 a93d 01c8 293d 9964 d1bc
000003c0: ea20 e33c 425c 2dbe 589f a6bd 9a56 ebbd
000003d0: 8a4c 27bd d8c1 753c b9e9 efbd 3799 38bd
000003e0: fff1 5f3d 4181 aebd bc87 a2be 727e ef3d
000003f0: 5061 333d bb7e 63bd d6b5 03bf 9ce3 223e
0.1998033 -0.1398831 0.017480183 0.18512659 -0.012099427 -0.05396946 0.11826503 -0.04841995
-0.11726908 0.20245798 -0.18396258 -0.2535637 -0.056170173 -0.32471225 0.065942094 0.0934148
0.13434084 -0.10234754 0.02488313 -0.01046424 -0.030577272 -0.06377867 -0.10435789 0.099039726
0.050677687 0.06079233 -0.049087286 -0.08582209 0.043664806 0.06618712 -0.040425103 -0.04361524
-0.1747049 -0.46145216 0.05935975 0.18554674 0.16597326 0.33625197 -0.023386292 -0.124112524
-0.14618653 -0.09885073 -0.024649812 0.073307306 -0.13096938 -0.10679282 0.104281895 0.04681169
-0.07755261 -0.067824826 -0.24295062 -0.1654542 0.14146227 0.032651335 0.3925303 -0.098507404
0.003737388 -0.15053819 -0.24516246 -0.05243819 0.2505914 -0.2096645 0.081870355 0.120062515
0.116047695 -0.33345652 0.044480853 -0.116298355 0.32964963 -0.07878226 -0.47568837 -0.48787957
0.08808997 0.1764501 0.066141814 0.30082074 -0.22587119 -0.23223287 -0.20838152 -0.08715946
-0.03871058 0.06478116 0.029594278 -0.019952506 -0.14935583 0.0659041 -0.20056362 0.62315106
-0.06092911 0.115294725 0.038991492 0.038577642 -0.21523528 0.050772995 0.14229883 -0.2139318
-0.0024206035 0.0680273 -0.08712387 -0.044452768 0.07128438 0.22171448 0.19326386 0.26259264
-0.53813946 -0.33101943 -0.6632697 -0.1271076 -0.37034065 -0.019097695 0.23875841 0.8423716
0.03558406 -0.38589883 -0.39862847 -0.10576699 0.103590675 -0.18094152 -0.18679793 -0.14656813
-0.24916741 0.013377447 0.23981059 0.19053888 -0.0319101 0.17116772 0.49842712 -0.16115199
0.096028514 -0.07437626 0.10890867 0.049950197 0.0011571553 0.04472666 0.08553525 -0.10371526
0.14885502 -0.16773863 -0.028928833 -0.6297833 0.2943102 0.13493335 -0.21115354 0.05888882
0.2885107 -0.0190229 -0.26817486 -0.22309613 -0.32562146 -0.09390504 -0.2233717 0.10716214
-0.380647 0.08021357 -0.014043093 -0.046771873 -0.016330052 -0.011918161 0.16627392 0.0071957516
0.17081195 0.18733977 0.10480498 0.03354608 -0.30674508 -0.38209018 0.15656653 0.07978054
-0.30338302 0.11089325 -0.19228241 -0.16075663 -0.025413763 0.013084469 -0.13649487 0.0081818495
0.004987765 0.16203472 0.15298662 0.14772354 0.06618535 0.15302137 -0.052683882 0.05334138
-0.07273694 -0.07568994 0.022522742 -0.008580196 -0.030827034 -0.1346765 -0.084221914 -0.25144503
-0.34931296 0.41652843 -0.050055493 0.12272221 0.32384303 -0.035490274 -0.0029155638 0.19933578
0.022254629 0.14836973 0.022266585 0.504134 -0.05579151 -0.06971413 0.20166619 -0.017960679
-0.0052916915 0.13368447 0.13225415 0.34481022 0.018370874 -0.14699867 -0.13194194 -0.10195448
0.5168174 -0.04370289 -0.0890001 -0.06589462 0.02564045 0.002575497 -0.19505818 -0.03019124
0.041086994 0.02508544 0.094304 0.0559592 0.0036652924 0.109175704 0.28873035 -0.0666013
0.14502974 0.06632133 0.10076712 0.08906358 -0.008858861 0.082526036 0.041450504 -0.025560664
0.027725656 -0.16929725 -0.08135861 -0.11491127 -0.040844478 0.014999829 -0.11714501 -0.045067992
0.054674145 -0.08520747 -0.31744182 0.116940394 0.043793976 -0.05554078 -0.51449335 0.15907139

fc2.bias f4 [32]
00000000: 8798 9e3e 8b17 053d 4299 2d3e a1e2 dcbe
00000010: df75 0abb 23ff acbd d2cc 843e 245d 60be
00000020: c15d e6bc 426e e93d 74a4 39bd 4336 b1bc
00000030: ab9c cbbd b717 afbe 1219 44be 1cfa 80bd
00000040: 2075 ffbe da79 ee3d 6bfb 233c 586b 063e
00000050: 5514 53be bbe5 853e 1eeb 11be 0753 28be
00000060: a7c7 f5be 1e97 953d f8cc 543c 2b28 b4be
00000070: 551e 22be 427b 9fbd 5459 df3e 6dd3 983d
0.30975744 0.032493155 0.16952994 -0.43141654 -0.0021127386 -0.08447101 0.25937515 -0.2191053
-0.028120877 0.11397983 -0.04532285 -0.02163232 -0.099419914 -0.3419778 -0.19150189 -0.062977046
-0.49894047 0.11644335 0.010008673 0.13126886 -0.20613225 0.26151833 -0.14249846 -0.16437922
-0.48003885 0.07304214 0.0129883215 -0.35186896 -0.15831883 -0.077871814 0.4362284 0.07462201

output.weight f4 [26, 32]
00000000: 3f5b 7e3d 7f88 bebe c452 1a3e 7074 6ebd
00000010: e90c 5d3d b992 953c 16a4 1e3e c2f8 a1be
00000020: 9b0c 02be a32b d2be c5d9 f13d 98f0 55bd
00000030: 49e4 8a3e 602d 383e fa33 b0be 7a1b 7bbc
00000040: a801 ecbe 4545 f9be 6c4c 0f3c af21 7bbe
00000050: 1e96 88be e272 b93e 35e8 cd3d dff1 813e
00000060: 471f b03d 45ea 02bd 47eb c4bd db6c 113f
00000070: 486c fcbb eecc 4abe 8fb9 f43e 05d5 61be
00000080: 30ff b7be a130 83bd 7827 8bbe 9ad5 ab3e
00000090: 8a59 8a3d 05e4 f1be 59a7 18bf 328b 493e
000000a0: a13c 6b3e 1a22 69be 1ad4 1cbe 0e87 13bf
000000b0: 97f2 c43e e6ea 013f 9144 c93e efd9 5fbe
000000c0: 1092 4d3e 5971 21be db6f 063d 3eea 3bbe
000000d0: bc0b 8abe f658 64be 3d2b 2cbe fc78 c53d
000000e0: 0add fc3e 41a5 dc3e f614 773e e460 a83e
000000f0: d534 7fbe bd29 1fbe 7c77 1fbf efdd 1c3e
00000100: 628c d8be 257f dfbe 6048 453e ddf2 5a3d
00000110: 1652 473e 9eb4 b6be 5d19 c5be ec00 7f3e
00000120: 1891 46be afc2 933e ae23 71be 5c64 64be
00000130: 1df5 403e 5b0a 413e 266c a43e 593d 953e
00000140: 2204 c53e 32cf 91bd 6022 a73c ecd9 c2be
00000150: 5171 c9be 717a 18bd 1aaf cb3e 9dde 8b3e
00000160: f1c2 f73e 1fb9 203c 4647 db3d 0744 953e
00000170: 5f3a 4cbe 0e5f 0b3f 683c 60be da33 b93e
00000180: 8ed3 83be fd91 3a3e 1dfd 6ebd c7ce 7f3e
00000190: 67f9 01bf 818c 0abf 07d4 c93d 011c e03d
000001a0: 27ea 14bd 83b1 f33d 5947 05be 4b9f a53e
000001b0: 002a 193e d69a a8be d601 febd 1e19 1ebe
000001c0: 36eb f33d 5899 a33d 061e 173d f276 24bf
000001d0: 05a3 adbe f844 9c3e b0d8 a9be 7200 c2be
000001e0: 9f01 c13c 16fa f4bc d119 a8bd bd21 c6be
000001f0: b371 99be 8800 803e 3b28 c0be 1e63 313e
00000200: b82d bebe cfe2 dc3e 7c3b aa3e f937 e0be
00000210: 34a0 c33d 7d88 f33d caaf 8bbc 37e4 813e
00000220: 9a48 c8be 654f 7e3e e51a cabe 8498 9e3c
00000230: a5b8 edbd b87e a03e 8982 8f3e 5264 153c
00000240: e61a 693e c21d 09bf 4a2b 79bb 20e2 a6be
00000250: fea3 393d 969a b23e fbc3 8a3e 8142 923e
00000260: f227 cf3e 7124 24be 9625 383d 904f 003d
00000270: 5118 86be 4cb0 1a3f f573 c33e 34c0 e83e
00000280: 5481 fabe acbd b93e e0a7 1cbc 3d67 883e
00000290: 82be 963d dcdd 24be f539 0fbf 99a6 b73e
000002a0: fd60 1dbd aea5 45be 9455 14be 40ea 91be
000002b0: fae5 c13d 9b27 413f 943a 963e 203b e4ba
000002c0: 9ea0 013f 8a69 85be edf9 663d cf56 723d
000002d0: 3ff9 923d 4ede 17bf 87a8 9a3d e387 b03e
000002e0: 2be1 233f f0e8 6b3e 3f99 4b3e 5766 093f
000002f0: 6a6f 1abe cbac a13e 9e65 abbe d77d 513e
00000300: ee0a 893d 4fa5 0dbf 4546 d1bc 56a1 7c3e
00000310: 4fc9 f4bb 84e7 8cbd cad1 75be fe11 18bd
00000320: 2fbe ff3c aff8 bbbd 8c6f 8fbb 708b 9bbd
00000330: 871c 463e 5d79 f8be a35e 483e 4e59 35bb
00000340: 669b 15be 9bbc 0c3f eae8 283d 5a4e d0bd
00000350: 673d fc3c ca3e 03bc 36cb 423e c4a2 0b3e
00000360: 5d9b 3bbe cab7 fc3c 5d4c 4ebd 9862 623e
00000370: 004a 913e 2f8e eabe 07c2 c1be 2536 b5be
00000380: e066 e0bc 3e90 a4bd 3709 0abf 5513 0e3f
00000390: 503e f4bd 3e6b 423e f7d4 163e 27fa 113e
000003a0: 4fd5 1b3e 94d9 533e ecc5 edbc dd30 023f
000003b0: 8dd6 b53e 8862 6cbe 48a9 b03d 7251 d03e
000003c0: 1042 df3e b680 ae3d f70b ae3c 1c72 05bf
000003d0: 2abb 963e df18 0f3e b926 2a3e 8a56 46be
000003e0: a2e9 eebd 9c89 88bc cef6 92bc 7a14 093e
000003f0: a81a 153f f4b7 d3be 4971 26be 8aec 1fbe
0.062098738 -0.37213513 0.15070635 -0.058216512 0.05396739 0.01825844 0.15492281 -0.316351
-0.12700121 -0.41048917 0.11809114 -0.0522314 0.27127293 0.17986059 -0.34414655 -0.015326375
-0.46095014 -0.4868566 0.008746248 -0.24524568 -0.2667703 0.3622046 0.100540556 0.25379845
0.08599716 -0.031961698 -0.09615188 0.56806725 -0.007703338 -0.19804737 0.4779782 -0.22053917
-0.3593688 -0.064057596 -0.2717855 0.33561403 0.067553595 -0.47244278 -0.5963035 0.19682005
0.22972347 -0.22766915 -0.15315285 -0.5762795 0.3846633 0.5074905 0.39310125 -0.21860479
0.2007525 -0.15765895 0.032821517 -0.18351075 -0.26962078 -0.22299561 -0.16813369 0.096422166
0.4938739 0.4309483 0.2412909 0.32886422 -0.24922498 -0.15543266 -0.62291694 0.15319036
-0.42294604 -0.4365169 0.1926589 0.05345427 0.19464907 -0.35684675 -0.38495913 0.24902695
-0.19391286 0.2885947 -0.23548767 -0.22303909 0.18843503 0.18851607 0.3211376 0.29148367
0.38479716 -0.071195975 0.020402133 -0.38056886 -0.39344266 -0.037226144 0.3978203 0.27318278
0.48390916 0.009809761 0.10706954 0.29153463 -0.19944142 0.54441917 -0.21898043 0.36172372
-0.2574734 0.18219753 -0.058346856 0.24981223 -0.5077118 -0.5412064 0.09854894 0.10942841
-0.036356118 0.11899092 -0.13015498 0.32348093 0.14957428 -0.3293063 -0.12402694 -0.15439269
0.11910097 0.079882324 0.036893867 -0.64243996 -0.33913437 0.3052137 -0.33173132 -0.37890965
0.023560343 -0.029904407 -0.08208049 -0.38697615 -0.29969558 0.25000405 -0.37530693 0.17322966
-0.37144256 0.4314179 0.33248508 -0.43792704 0.09552041 0.118912674 -0.017051596 0.25369427
-0.3911789 0.24834974 -0.39473644 0.019359834 -0.11607484 0.3134668 0.28029278 0.0091181565
0.22764167 -0.5356103 -0.0038020187 -0.32594395 0.04532241 0.34883565 0.27102646 0.28566363
0.40460163 -0.16029526 0.04495772 0.031325877 -0.26190427 0.6042526 0.38174406 0.4545914
-0.48926795 0.3627752 -0.009561509 0.26641265 0.07360555 -0.16100258 -0.5594781 0.3586929
-0.038422573 -0.19301483 -0.1448577 -0.2849903 0.09467693 0.7545106 0.29341567 -0.001741264
0.5063571 -0.26057082 0.05639069 0.05916482 0.07176446 -0.59323585 0.07551675 0.34478673
0.64015454 0.23038077 0.19882677 0.53671783 -0.15081564 0.31577143 -0.33475965 0.2045816
0.06691538 -0.55330366 -0.025546202 0.2467092 -0.007470287 -0.068800956 -0.2400581 -0.037126534
0.031218616 -0.09178292 -0.004377311 -0.07594955 0.1934682 -0.48530093 0.19567351 -0.0027671638
-0.14610061 0.5497529 0.04123775 -0.101711944 0.030790998 -0.008010576 0.19022831 0.13636309
-0.18320985 0.030849356 -0.050365794 0.22107923 0.2837677 -0.45811602 -0.37843344 -0.35392871
-0.027392805 -0.080353245 -0.5392031 0.5549825 -0.11925948 0.18986222 0.14729677 0.14255582
0.1521809 0.20688468 -0.02902504 0.5085581 0.35515252 -0.23084462 0.08626038 0.40687138
0.4360509 0.085206434 0.02124594 -0.5212724 0.2943967 0.13974331 0.16616334 -0.1936895
-0.11665656 -0.01666718 -0.017939951 0.13386717 0.582438 -0.41351283 -0.16254152 -0.15617576

output.bias f4 [26]
00000000: cb54 91be 9342 11be ded9 a1be 168f f53e
00000010: 535b b1be 8048 4cbf c754 713e 5750 75be
00000020: fa1e 7cbe 5683 c2bf 1c6a 09be 203d 26be
00000030: c448 393f 699a d139 1fe3 74be 97a9 50bf
00000040: afdf f3be c408 633e 10d3 ccbc b5dd 903e
00000050: 37b1 0c3e eacb f7be faeb 3fbf 4338 f4bd
00000060: 6e51 8fbd 6e8c 4bbf
-0.28385004 -0.14185552 -0.31611532 0.47960728 -0.34639987 -0.79798126 0.23567496 -0.23956428
-0.24621192 -1.519633 -0.13419384 -0.16234255 0.72376657 0.0003997863 -0.23914765 -0.81508774
-0.47631595 0.22171313 -0.025002986 0.2829415 0.13739477 -0.48397762 -0.74969447 -0.119247936
-0.06997953 -0.79511154

onnx::LSTM_248 f4 [1, 256, 63]
00000000: c196 22be 2086 32be 67c3 23be 2de0 f8bd
00000010: a3a5 b23c 517c 8ebe db3c 99be 706d d9bd
00000020: e71a 55bd 61bc 4abe e3fd 9fbe b605 7b3e
00000030: 629a 64be 7833 2abe f5bf f03e 78e6 19be
00000040: 9351 76be 6197 1e3d 4ed2 62be 19ef b0be
00000050: 345e 9ebe fd0b 50be c05f c4be 63b0 a9be
00000060: 3415 93be e455 cbbe c665 48be 590f b0bd
00000070: b23e 23be 938b 05be 4c5c 07be 8831 2dbe
00000080: 68c7 9fbe 6f59 d8bd 0145 89bd 1c9c bc3b
00000090: 305f b7bb 9724 74be 5a9b 833c 1d19 24be
000000a0: 6592 bebe e320 6fbe 645e f4bd 8231 9ebe
000000b0: d246 1ebf 7e18 73be 8329 22bd 7cd0 aabd
000000c0: e849 56be 8d9f 88be f1dd 293f 40bd 17be
000000d0: 0cac 8cbe 5d05 e6be 7543 02be e4d9 97be
000000e0: c97e 88be 5e1b 483c 32c7 2cbe 9b32 4b3e
000000f0: c5fa c33d 2207 fbbd 476f 4e3f 6171 0ebf
00000100: f4b7 babe 670c 3b3e 5ea8 e5be a211 86bf
00000110: 4993 753d 3d16 fbbe 08bb 90bf be8c 4e3e
00000120: 691f 93be a6df 8dbf 37ba 843a 2544 b5be
00000130: 81e4 a2bf 327e d13d 9224 5abe ad8f d1be
00000140: 73e8 b63a 14bd 1d3c f1e9 06bf 0c82 00ba
00000150: fae5 9a3e 53ac 0dbf dae6 6c3e 044d fc3e
00000160: 4689 c3be ce11 dc3c ff49 f9bd 910c 60bd
00000170: efc5 4f3e 17c8 be3c b196 4ebf c244 c33c
00000180: 269b 19bc fe54 6dbf 0db9 ac3c ac63 eabd
00000190: 0af8 5dbf ba6d 553e f0ee 82be 0a77 063d
000001a0: 40c3 743e 137f 5fbd 72c4 01bf 23bd be3c
000001b0: b467 ccbd 7120 cebe dc3c 573e 521d aebe
000001c0: 39bc 84be e99e 803e fc58 87be 9931 043e
000001d0: 4a89 393e 1211 84bd 2017 2cbf e544 243e
000001e0: af6d 83be e82c 1cbf 1fe5 a83e 3ffc 7abd
000001f0: 4295 3abf 4a87 183e ebf8 a83e 88fe 05bf
00000200: 1c3c ebbe a92b bb3d 2f71 d2be b2fe ff3e
00000210: 4be3 dabd db54 f4bd 8895 6d3e eb03 4bbe
00000220: 04c4 c7bd 6f71 293e 5247 a0be 27d7 fe3d
00000230: 1399 273b b5d0 8e3c 56e1 b8be d596 083f
00000240: 995a 43be 1019 18be e8f8 2ebe 03b7 7cbe
00000250: c5c0 8abe 256e c8be df28 e6be 659f 95be
00000260: 01dc 02bf 20cd 97bd 3ee6 05bf 179b 87bc
00000270: 9fa7 9bbe dc08 db3c fb19 843d 5dfa 93be
00000280: 6186 9ebe 996b 97bc 11ae 88be d18d 15bf
00000290: 40e7 6abe bbda a6bc 3fcd 18bf 1600 1dbf
000002a0: 30e6 81be 5e77 ee3d 05b5 f4be d56e 65be
000002b0: 01df fe3c adb4 d3bd 65b7 0bbe 21ad 65be
000002c0: a76e 603e 523a efbc 2183 f3be 9321 55bf
000002d0: 0bc6 4dbe bf49 5fbe 994e 11bf d14a 4abe
000002e0: 30b1 7d3d 6d6c f0be ac40 843d 9081 f03d
000002f0: d19b 08be 65b9 59bd 1df3 593f 2d27 87bd
00000300: 2b9e a139 18e1 033f ba5a 3abd 412a e3bd
00000310: 90d9 a03e e907 84bd 58ef dbbd 78e2 7b3d
00000320: ad66 df3b 7353 41be 79af 8a3e a78e 8fbc
00000330: 82f6 273e f3b4 a03c 5228 a53d 6f0d bcbd
00000340: 6a56 633c 8660 083e cc27 afbe 4a81 653f
00000350: 5983 91bd dbe8 7abe 4774 ce3f 7d3c 6f3c
00000360: 90e7 0c3e 7755 a63d e6b0 2a3b 7095 e2bd
00000370: 2476 e4bd 0533 2b3c e4f0 7bbd 638a 9a3e
00000380: f8aa 193e 7d1a 80bb 2df5 2a3f bc9d 313e
00000390: 3a88 10bd 9490 253d 61fe bd3b c577 f3bd
000003a0: d121 68bf 8fcf 50bc a449 4ebe 5d0e 65bf
000003b0: 9451 d13d bcb5 77be d4b9 4cbf def0 e03d
000003c0: d451 703c 6f5f 3a3d 9e29 1abd b2e5 dabd
000003d0: 7618 1dbf 3746 5fbd befe 4ebe 8839 cebf
000003e0: a7cb e73c 399d 29bd 51f1 0ec0 13de 24be
000003f0: 3f55 35bf 2ff0 c5bd 7ace b239 4b77 b0be
-0.1587782 -0.17433977 -0.15992509 -0.12152133 0.021807497 -0.2782922 -0.29929242 -0.10616577
-0.05202761 -0.19798423 -0.31248388 0.24513897 -0.22324517 -0.16621196 0.47021452 -0.15029323
-0.24054556 0.038718585 -0.22150537 -0.34557417 -0.30931246 -0.20317073 -0.383543 -0.33142385
-0.28727114 -0.39713967 -0.19570073 -0.08596677 -0.15941885 -0.13041525 -0.13218802 -0.16913426
-0.31206822 -0.10563933 -0.067026146 0.0057559144 -0.005596064 -0.23842083 0.016065288 -0.16025205
-0.37221065 -0.23352389 -0.11932066 -0.30897146 -0.61826813 -0.23739812 -0.03959037 -0.083405465
-0.2092663 -0.26684228 0.6635428 -0.14818287 -0.2747501 -0.44925967 -0.12721045 -0.29658425
-0.2665923 0.012213556 -0.16872862 0.19843523 0.09569315 -0.1225722 0.80638546 -0.5564175
-0.3646847 0.1826645 -0.44855016 -1.0474131 0.059954915 -0.49040404 -1.1307077 0.20170876
-0.28734902 -1.1083877 0.0010126297 -0.35403553 -1.2725984 0.10229148 -0.21303013 -0.40929928
0.0013954773 0.009627599 -0.52700716 -0.0004902191 0.30253583 -0.5534107 0.23134938 0.49277508
-0.3819067 0.026863959 -0.12172317 -0.054699484 0.2029035 0.02328877 -0.80698687 0.023836497
-0.009375369 -0.9270781 0.021084333 -0.11444792 -0.867066 0.20842639 -0.2557292 0.03282837
0.23902607 -0.054564547 -0.50690377 0.023283547 -0.09980717 -0.40259126 0.2101931 -0.34006745
-0.25924852 0.2512124 -0.26435077 0.12909545 0.18118778 -0.064485684 -0.67222786 0.16041906
-0.2566962 -0.6100602 0.32987306 -0.061275717 -0.72884 0.14895359 0.3300241 -0.5234151
-0.45944297 0.09139187 -0.41101977 0.49999005 -0.10687884 -0.119302474 0.23201573 -0.19825713
-0.09754184 0.16547178 -0.31304413 0.12443381 0.0025573417 0.017433504 -0.36109418 0.5335515
-0.19077529 -0.1485331 -0.17087138 -0.24679188 -0.27100196 -0.39146534 -0.44953057 -0.2922317
-0.5111695 -0.07412171 -0.52304447 -0.016553445 -0.30401322 0.026737623 0.06450268 -0.2890195
-0.30961898 -0.018483924 -0.26695302 -0.5841952 -0.22939777 -0.02036797 -0.5968818 -0.61328256
-0.25370932 0.11643861 -0.47794357 -0.2240556 0.031112196 -0.103371955 -0.13644178 -0.22429325
0.2191721 -0.029202614 -0.4756098 -0.83254355 -0.20095079 -0.21805476 -0.56760556 -0.19755103
0.061936557 -0.46957722 0.06457648 0.11743462 -0.13340689 -0.05315532 0.85136586 -0.06599269
0.00030826157 0.5151534 -0.04549668 -0.11092044 0.31415987 -0.06446821 -0.107390106 0.061495274
0.00681766 -0.1887949 0.27087 -0.017524077 0.16402629 0.019617533 0.08064331 -0.0918225
0.013875583 0.13318071 -0.3421005 0.89650404 -0.07105131 -0.2450289 1.6129235 0.014601824
0.13760209 0.0812177 0.002604538 -0.11063659 -0.11155346 0.010449176 -0.061509028 0.30183706
0.15006626 -0.0039094076 0.6678036 0.17345327 -0.035286166 0.040421084 0.0057981466 -0.118880786
-0.906766 -0.012744798 -0.20145279 -0.8947504 0.10220638 -0.2419042 -0.7997105 0.10983442
0.014667947 0.04550117 -0.037637345 -0.10688342 -0.6136545 -0.05451032 -0.20214364 -1.6111307
0.028295351 -0.041409705 -2.2334788 -0.1610034 -0.708332 -0.09664952 0.00034104643 -0.34466013

onnx::LSTM_249 f4 [1, 256, 64]
00000000: ab54 d6be fd12 7ebe e686 313c dd1e e2be
00000010: 18c0 babe 4638 21be 45ea cb3e 5168 b03d
00000020: b277 3ebe 55b2 09be 3d48 49bf 3d99 4dbd
00000030: 6248 2d3f 2791 503f 86df bc3e 138f 9c3d
00000040: 533f d4bd f939 2c3d 4d85 48be 4b1b aa3f
00000050: 9262 4c3f bb86 5d3e bf62 d5be 1610 043d
00000060: 5faf 0a3f 1dbc db3e 025b 1cbf 7431 b23e
00000070: 8d4f 97be 7352 783e f0ad cabe 1554 203e
00000080: 40b9 d73d 78f9 e0bd c467 1c3e 31ce b63e
00000090: 7657 09bf eb95 123d b292 35bf 7b44 213f
000000a0: b3ef 233f f054 be3e b3d7 27bd df37 30be
000000b0: d753 e73e 96dc 733b db44 c73d f046 2e3f
000000c0: 320e f13e 1577 a6be 3470 71bf 8c7b 3dbf
000000d0: a282 af3d 4272 563f dfe0 f3be 3c65 733d
000000e0: 2fb6 acbe e258 89be 0544 01bf ddc3 89be
000000f0: 3e69 293f 9b07 c93d 12cd 5ebf 0ccb abbe
00000100: c62c 833d a60d 97be 0d42 6b3f 18f5 9b3d
00000110: 70ff 7fbe 4337 8e3f 9323 863d 85c1 63be
00000120: 7125 38bf 0bd4 603e bcd5 913e 0e2c 823e
00000130: 24b2 04be 4e4f 643f 0d7a 9dbe ad76 55be
00000140: 1a61 403f a127 dfbd 2849 ccbe 014f 8ebe
00000150: 3868 4f3f 5a1d ca3e d444 2f3f d834 ca3e
00000160: 0cf5 853f 2af2 dc3e 25cf 62be 5f01 c5bd
00000170: 8e4a 223f 9295 06bf bb8f 96be e79e b6bd
00000180: 8822 093e d828 373e e881 c53e d5cd 903d
00000190: 0186 983c 49f3 90be 8332 37bd d13b 8e3f
000001a0: 596b 1e3d f7c7 1ebf f872 a5be 9226 5e3e
000001b0: f191 8c3c e96a 713d 5971 c9be 889b 803f
000001c0: e897 4ebf da15 ccbd 409c cfbd 8fe7 d9bd
000001d0: fd3a eabe e673 c7be 297d c53c 7e42 37bf
000001e0: 54b5 4abf b19c 80be b223 fd3e 59f1 3bbe
000001f0: 04d0 96bd d538 da3e 55b7 893d b0f6 0f3e
00000200: 9896 9c3d 5bc0 bebe 74fd 81bd 066d 10bf
00000210: ac0a 1b3f 81f4 3b3b 4679 893e f5a9 433f
00000220: 9819 85bf 2e97 8ebe 873e f2be aa92 71be
00000230: d639 673f 5450 633f c3d2 373f 2cb9 933c
00000240: a361 5d3e 69e5 7fbe 86b7 823e c187 2b3f
00000250: 76fa 6b3f 94ea 1bbf e56f acbf 515b 5dbf
00000260: 2051 e7bb 1713 7dbf 3dd1 5dbe 983b 3d3f
00000270: 4962 8dbf 4b1c f5bd 91ce 843d 0c75 233f
00000280: 7c15 773e c62f 06bf 8865 7ebf 17e4 a43e
00000290: 304c b2be f311 0ebe 413a 39bf 109b 193f
000002a0: 8161 583e 121a e4bd fbb6 9ebe 6cfd 1cbf
000002b0: bae5 853e 617c 5e3e 073d 2a3e f885 003e
000002c0: 2bd3 cf3e 84d8 09be 2fe8 0cbf cc82 84bf
000002d0: 57aa db3d e64f 5f3f c493 94be f4a5 ccbd
000002e0: fc47 21bd b441 4ebe 24e9 813e 4014 cf3c
000002f0: 27b3 7b3f 972c 28bf 333b 32bf d8f0 84be
00000300: 33e2 83be d09d 2abe f2dc 83be 2b40 83be
00000310: 5d8a 773e eba1 143d 8c9c e23d 6f1f 5c3e
00000320: 8ac1 e3bd 6a6e afbe 50be 17be cc2d 123d
00000330: dabf 14be f7fd 9c3d cfa3 cfbb a380 83bb
00000340: abfd db3d 791d a63e 4c6c 643e d116 ae3e
00000350: b0d8 203e 4647 68be e2f3 f03b fe28 c2be
00000360: 6a46 573e 5937 1fbe fbf9 20be 2282 053e
00000370: 9b5a e8be 0a84 393e de94 35be d109 003e
00000380: 3b68 39be 24a9 aabd 7bc8 d3be 873b 663e
00000390: bd96 e2be 6428 eabd 6d63 1dbe c259 30bf
000003a0: 288e 703d 664c 66bd 3599 913d 7759 1a3b
000003b0: 284e 263d 0698 4c3d 58d9 703d 3e87 823d
000003c0: 6431 e83d 9ce5 133d b4d0 2ebd f1ec 71be
000003d0: 268c 923e 8ad3 743e ce37 9f3d cc5f e63d
000003e0: 3ccf a0be 1342 d73d 4357 7cbe fea9 8e3d
000003f0: fc8f 7a3e f904 61be 16db 4ebe 1f56 26be
-0.41861472 -0.24811931 0.010835385 -0.44164172 -0.3647468 -0.15744123 0.3982717 0.08613647
-0.18600348 -0.13446935 -0.7862585 -0.050194968 0.6768857 0.81471485 0.36889285 0.07644477
-0.10363641 0.042047475 -0.195821 1.3289579 0.79837906 0.21633427 -0.416769 0.032241903
0.54173845 0.42916957 -0.61076367 0.34803355 -0.2955288 0.24250202 -0.3958583 0.15657075
0.105333805 -0.109850824 0.15273958 0.35704187 -0.5364908 0.035787504 -0.70926964 0.6299512
0.64037627 0.37174177 -0.04097719 -0.17208813 0.45181152 0.0037210337 0.0972993 0.6807699
0.47081143 -0.32512727 -0.94311833 -0.7401664 0.08569838 0.83768094 -0.476325 0.059422716
-0.33732745 -0.26825625 -0.50494415 -0.26907244 0.6617621 0.09815904 -0.8703166 -0.3355335
0.06405024 -0.295026 0.9189766 0.07615107 -0.24999785 1.1110615 0.06549754 -0.2224179
-0.7193213 0.21955888 0.2848338 0.25424236 -0.1295858 0.8918351 -0.3075718 -0.20846052
0.75148165 -0.108962305 -0.39899564 -0.2779465 0.810184 0.39475518 0.684644 0.39493442
1.0465407 0.43153507 -0.22149332 -0.09619402 0.6339501 -0.52571976 -0.29406533 -0.08917027
0.13392079 0.17886674 0.38575673 0.07070509 0.018618586 -0.28310612 -0.044725906 1.1112005
0.038676593 -0.6202387 -0.32314277 0.21694401 0.017159434 0.058939848 -0.3934429 1.0047464
-0.8070054 -0.09965105 -0.10137224 -0.106398694 -0.4574813 -0.3895561 0.024107533 -0.71585834
-0.79182935 -0.25119546 0.49441296 -0.18353786 -0.073638946 0.42621484 0.06724421 0.14058948
0.07645911 -0.3725613 -0.063471705 -0.56416357 0.6056316 0.0028679671 0.26850337 0.7643121
-1.0398436 -0.27849716 -0.4731333 -0.23591104 0.90322626 0.88794446 0.7180597 0.018032633
0.21619277 -0.24989857 0.25530642 0.6700402 0.9217905 -0.6090481 -1.3471648 -0.8646746
-0.0070592314 -0.98857254 -0.2166185 0.7391906 -1.1045619 -0.11968287 0.06484712 0.63850474
0.2412929 -0.52416646 -0.99373674 0.3220527 -0.3482375 -0.13874035 -0.72354513 0.6000223
0.21130945 -0.11137785 -0.30998978 -0.6132419 0.2615183 0.21727134 0.16624843 0.12551105
0.40590796 -0.134615 -0.55041784 -1.0352416 0.10725849 0.8723129 -0.29018986 -0.099925905
-0.03937529 -0.20142251 0.25373185 0.02527821 0.9832024 -0.6569304 -0.6962158 -0.25965
-0.25758514 -0.16661763 -0.25754505 -0.25634894 0.24173875 0.03628723 0.11065015 0.21496366
-0.11120899 -0.34263927 -0.14818692 0.035688207 -0.1452631 0.076656274 -0.006336666 -0.0040131374
0.10741743 0.3244436 0.22306937 0.34001783 0.1570766 -0.22683439 0.007353292 -0.379219
0.21022955 -0.15548457 -0.1572036 0.13037923 -0.45381626 0.18116775 -0.1773257 0.12503745
-0.18106167 -0.08333042 -0.41363892 0.22483645 -0.4425563 -0.11433485 -0.15369959 -0.6888696
0.05872932 -0.056225203 0.071093 0.002355186 0.04060188 0.04994967 0.058801025 0.06373452
0.113375455 0.036107644 -0.042679504 -0.23625542 0.2862255 0.23908821 0.07774316 0.112487406
-0.31408107 0.105106495 -0.24642663 0.06966017 0.24468988 -0.21974553 -0.20200762 -0.1624379

onnx::LSTM_250 f4 [1, 512]
00000000: c8ab 663e 16bd 0b3e 1c7f a43e 424a 40be
00000010: 3141 983d 0495 dd3d 6a30 c23e 1dfd 873b
00000020: ba36 383e 9f59 913e 9e4c 563e 8b6b 16be
00000030: 7f31 ed3e 4a67 353f ebd7 e63e 4d15 2e3f
00000040: 0240 e6bc 4e55 253d c43e 373f 735b 1cbd
00000050: 4bd1 1dbe 4c9c b63e f397 0b3e c5fa 213f
00000060: db7d 963e 2d28 ef3e cfbd 263e a618 213f
00000070: 743a 2a3f 0ab1 543d 83e2 0fbf 90a1 153e
00000080: 0e90 9abd 10b0 f83e 3ef3 153f 04e0 2abd
00000090: ba7f d9bd bb57 563d 637c 153e 5f5a 3c3d
000000a0: 440e 413f 91e8 8dbd 986e 133d bab2 043d
000000b0: 3e35 95bc 0e2f bf3c f69c babe 8167 fa3d
000000c0: a96a 0abe 3ab2 c03e d1ea 053e 0658 893e
000000d0: 2469 693e 1a6f d73e 50ee d83d 010a 87be
000000e0: fb24 babc 1334 683e 9ec3 54be 6118 7d3c
000000f0: 5753 563f 6432 d83e d254 cb3e 558e afbd
00000100: 4a0c 2f3e d862 533f de83 dc3e b3b7 cabd
00000110: f2da 8f3e 3d39 ffbb 1531 183f a228 0f3e
00000120: c6f0 de3e 3fa8 5e3e 07e6 273d f34d aabd
00000130: 04ab 6f3e b047 053f cc83 a03e 5f7c 753e
00000140: 833c b6bd 4ff7 b73d 7f27 723e ae25 edbd
00000150: 06fa 11be 6703 3d3e 2101 4d3e 0542 d93d
00000160: 8769 063e 2ffb 623d b8b8 4d3e 2611 c5bd
00000170: 696f cc3d 4883 0b3e 0fc5 f2bd 3bfe fd3e
00000180: 7c45 98bd 2956 e83e d428 853e 58f9 e8bd
00000190: 9cab 09be 5f00 3cbc d6d5 373f 7496 d53d
000001a0: 4bfc 093e 51a6 1abe fd1a 9dbd 98a1 cd3c
000001b0: 49a5 3ebd 909c b23d 16c3 a5be edb5 903d
000001c0: 3a68 a3bd ad7c c53d 45ca af3e 9746 563e
000001d0: deec e73d 5805 633e 7403 cb3e dd6a 4dbe
000001e0: ba0a b5bd 5634 ba3c cadc d03d b44c 4c3e
000001f0: 695f 993e d9a0 ea3d d71e 093e b28c 553d
00000200: aed0 69bd 5019 0dbe e124 6fbd 6255 19be
00000210: 8b62 0b3e 4113 cebe 2cc6 babd 1089 03be
00000220: cc11 a1be 4a3d 9c3e 045a 043e 3451 89be
00000230: 037c b13e dd11 083f b5ad 0c3f c605 a9bd
00000240: db08 fc3d c4ed 6fbe 0ec7 ad3e 5149 6abf
00000250: a9af 7bbf fa32 19be 6395 9ebf d66f 823d
00000260: ba80 37be bc6e bd3d c305 5abe c10f 243f
00000270: 0059 c13d 60db 76be 48c5 42bf 82a9 9d3d
00000280: 1947 debe 3b8d babe 9b35 a03e 1368 4cbf
00000290: 7214 1d3d 3c0b aa3d 79cb 2abe 6ad8 81be
000002a0: 3ca7 84bd 2b35 34be be7a 8f3e a67e 71bc
000002b0: 5994 a1be 3b5f 653d f902 2abe ed03 b2be
000002c0: 5eea e73c 078f 26be 6fb7 2ebe 6ecb d53c
000002d0: 8f31 2e3e 3e11 553e 41ee 8f3d 196a 01bf
000002e0: ebf9 d3bd cd44 d93e 9260 0ebf 1d12 3ebb
000002f0: f85a 063f 3ee5 693e 13a2 1cbb 51dc 72bc
00000300: e3e3 433d bdcc d9be c4ac e9bc 54bc 0abf
00000310: 0a47 33bd 6444 793e e2cd fb3e 0193 80be
00000320: 3505 cd3e 9ccb 973c 79b6 6b3d cbfe 5b3e
00000330: c368 e0bc 5b75 f8bc 78b1 86bd 6ed0 923e
00000340: b51f 193e 54df c1be f317 6c3d 9e73 93be
00000350: 4b69 dabe 7c06 d23d 1e3b 91bd 2dc7 a13e
00000360: 55d1 22be fefb 443e 7670 263d 0212 893e
00000370: a2fb 9e3e 8be3 f23b d975 8dbd 2872 db3d
00000380: a364 ea3d 5686 563c 6631 343e 2111 0dbe
00000390: a6b4 c9bd a279 e13e 8322 8f3e d147 543e
000003a0: 0847 6b3e 9f07 a1bd 8ce5 d63c 9c8a 433a
000003b0: e31a d1bd 50ca 313e cfed 923b 1627 44bd
000003c0: 7769 fe3d 34ca a4bd 1b68 5abb 0c03 183d
000003d0: 9965 b6be 5c30 1f3d 9467 e7be 9673 043d
000003e0: fdf9 413e 9228 613e afd0 3b3e 5a46 f7be
000003f0: b7de abba 841c 8abd 8a6a 4a3d 1895 c2be
0.22526467 0.1364635 0.32128227 -0.18778327 0.07434309 0.10819438 0.37927562 0.0041500465
0.17989627 0.28388688 0.20927665 -0.14689462 0.46326825 0.7086073 0.45086607 0.6800125
-0.028106693 0.040364556 0.7158015 -0.03817315 -0.1541187 0.3566612 0.13632183 0.6327327
0.29392895 0.4671034 0.16283344 0.62928236 0.6649544 0.05192665 -0.56205004 0.14612412
-0.075470075 0.48571825 0.58574283 -0.041717544 -0.10620065 0.05232976 0.14598231 0.045984622
0.7541239 -0.06929124 0.035994142 0.03239701 -0.018213864 0.023337867 -0.36447877 0.12226773
-0.1351725 0.37635976 0.13077857 0.2682497 0.22794014 0.4207695 0.105923295 -0.2637482
-0.022722712 0.22676115 -0.20777747 0.015447707 0.83720917 0.42225945 0.3971315 -0.085720696
0.17094532 0.825727 0.43069357 -0.09898319 0.2809673 -0.0077888058 0.59449893 0.13980344
0.4354307 0.21743868 0.040990856 -0.08315649 0.23405081 0.5206251 0.31350553 0.23973225
-0.088982604 0.08982717 0.23647879 -0.115794525 -0.14255533 0.18458329 0.20019962 0.10608295
0.13126193 0.05541533 0.20089996 -0.096224114 0.09982187 0.13624299 -0.11853992 0.49608025
-0.07435128 0.45378235 0.26007712 -0.113756835 -0.1344437 -0.011474698 0.7181066 0.10429087
0.13475148 -0.15102507 -0.07671163 0.025101468 -0.046544347 0.08721268 -0.323754 0.070659496
-0.07978864 0.09642921 0.34334007 0.20925365 0.11324476 0.22170007 0.39651072 -0.20060296
-0.088399366 0.022730034 0.10198362 0.19951135 0.29955605 0.114564605 0.1339067 0.05213613
-0.057083778 -0.13779187 -0.05838478 -0.14973977 0.1361181 -0.40249065 -0.091198295 -0.12845254
-0.3145889 0.3051551 0.12924963 -0.26819766 0.34664926 0.5315226 0.54952556 -0.08253054
0.123063765 -0.23430544 0.3394093 -0.9151812 -0.9831491 -0.14960852 -1.2389339 0.06368987
-0.17920199 0.092496365 -0.2129126 0.6408654 0.094408035 -0.24107122 -0.7608228 0.07698347
-0.43413618 -0.36435875 0.31290898 -0.79846305 0.038349576 0.08302924 -0.16679181 -0.25360423
-0.0647721 -0.17598407 0.28023332 -0.014739668 -0.31558493 0.055999022 -0.16602696 -0.3476862
0.028309997 -0.16265498 -0.17062162 0.02609798 0.17011093 0.20807359 0.07027865 -0.5055252
-0.103504024 0.42435303 -0.55616105 -0.0029002496 0.5248256 0.22841355 -0.0023900315 -0.014823035
0.04782475 -0.42539015 -0.028524764 -0.54193616 -0.04376892 0.24342495 0.49180514 -0.25112155
0.40043035 0.018529706 0.057547066 0.21483915 -0.027393704 -0.030329397 -0.06576818 0.28674644
0.14953502 -0.37865698 0.057640027 -0.28799146 -0.42658457 0.10255143 -0.07091354 0.31597272
-0.15900166 0.19236752 0.040634595 0.2677155 0.31051356 0.007412379 -0.06907243 0.10715133
0.11444976 0.013093552 0.17596969 -0.13776065 -0.09848909 0.4403811 0.27956018 0.20730521
0.22976315 -0.07862782 0.026232503 0.0007459314 -0.10210206 0.17362332 0.0044839154 -0.047888838
0.124224596 -0.0804638 -0.0033326212 0.03711228 -0.35624388 0.03886448 -0.4519621 0.032336794
0.18943019 0.21988133 0.18341325 -0.4829586 -0.0013112639 -0.0674372 0.04941801 -0.38004375

onnx::LSTM_268 f4 [1, 512, 64]
00000000: d266 f13e 287a 45bf 3d8b 4fbe 438f a0bd
00000010: 8cdb 6bbd 29a8 b1be a4a0 213e 9ab1 ed3e
00000020: dc7e 0bbf 18e3 c8be 78a7 66bf 343a 283d
00000030: 8660 c93e f75f 5ebe 6fd5 533f 7bcf 71bf
00000040: 25b4 bfbe 6a38 3dbe 0358 643f 01f3 3bbf
00000050: 88b5 64be 338b 323e 421e f13e b361 73be
00000060: d938 30be c22e 98bf b382 39bf 5cb1 a33e
00000070: 9699 ebbe 33ed 71bd 5e33 673e e2fe e63e
00000080: 72a3 30bc 7b36 bebe d572 30bf c03c a93e
00000090: 0865 19bf d18a a6be a3aa 073f 36df 0dbf
000000a0: da9a 963e 9b9e b83e e20e c23e 0c95 453f
000000b0: b3ab 0a3c aab2 fcbe db32 233d 18dd e4be
000000c0: 20f6 7abe 6481 d9be 65de 75be 5064 933e
000000d0: d25b 6fbe ef6f 763f d5c0 04bf 03c2 933e
000000e0: c025 913e 2b4f 893f b188 21bf 72d4 963c
000000f0: dfd8 2bbd 185d 3cbf e436 9cbf d8e1 a3be
00000100: 8195 083e b7d1 05bf 9d42 b2be 5531 62be
00000110: e071 163f 0bab 433d 8ddb a63e 5ccc 083f
00000120: 50d6 ecbe f756 3e3d 6b1a 56bd d1a7 f33e
00000130: ef05 5a3f c72d 7d3e 27c6 353f 76f5 87ba
00000140: c5c9 173f e6ca 42be 5bac 7f3f 0d37 b9be
00000150: e70b 5cbf c553 e7be 83b1 d43e a478 44bf
00000160: 1be3 36be 8dad 4abf ad81 8ebe 23e4 683e
00000170: d084 77bf 9276 443e 2520 483e c925 f53e
00000180: 8b9c 8abe 1153 6b3e c32c 15bf dbb1 33be
00000190: 8a24 ccbe 2a19 0f3d 7131 d0bd 7982 4dbf
000001a0: 3723 8e3e 3a3f 0fbe 1e8d 973b 2097 ef3e
000001b0: e6d9 50bf 8d55 8a3e 55e1 dfbe 2dcd eabe
000001c0: 425b 65bd 0840 c9be 6d9e 93be 256e 65bc
000001d0: 3c79 883a 1c43 2b3f 7c39 a5be 80cd d43e
000001e0: f4b0 913e f1f3 153f 7ba2 4a3e 23da 6bbe
000001f0: cfc1 cc3e 0895 d2be f98d 9bbe 2764 cabd
00000200: 72d0 623e 600b e9be ffdf 85bf c85b aebe
00000210: d9de a23e e568 8ebe 46dd 88bd 3212 223b
00000220: f10e 853f fabc e8be 1c6c 7bbe 1fc8 063e
00000230: d02b c9bd 167a eebb dca9 413e 4940 c9be
00000240: d7fc 533f 82e3 293e 895f 2c3e 8ed1 f83e
00000250: 5cd0 8bbd 6b3d 37be a0b5 8d3d c7bc a83d
00000260: 5ae2 9ebd 61e1 3bbe cf28 9ebe 33a1 db3c
00000270: 72b0 dabe e4e8 26bc 766d 263e e5ab 643e
00000280: 4e5e 813d bc7d a23e 0a44 10bf f7da 303c
00000290: b2be c13e d8cb 363f e6de 44be e159 58bf
000002a0: 3bd7 e03d 7be1 ba3e 8fe1 bbbe 86e6 a73e
000002b0: abc2 883e 0134 c13e 7a89 253e 05e0 813e
000002c0: 2561 95be c6d9 0dbe dffc 76be 5fdd d43e
000002d0: c6fc e03e 2d5b 9f3e 9210 abbb a3b4 f73e
000002e0: c170 d9bd 689f 0b3e f62f 113f f9b7 b33e
000002f0: 49dc e83e 45ac 01bf 7d0e 8ebe 6fff c03d
00000300: 350e 373e 21d0 a4be f2d3 2e3d 2f14 7dbf
00000310: 74bc a93d 89e9 d4bd 70ec b13e 38d6 a2be
00000320: a2aa ca3e d3a9 76bf 3f8a 2abc 17b6 b0be
00000330: 6f7f a03e c564 acbe 6d32 16bf 1fd5 e2be
00000340: 30cf df3e 94af e4bc 7d51 833e 2a11 c4be
00000350: 47aa a1bb 3258 003f a0f4 dcbe 5dcd 923e
00000360: 4021 68bf 96e9 0e3f c6ee e0bd 78ce 9b3e
00000370: 6a23 fe3e 9369 553d a873 a43e 507e 2c3e
00000380: ebe5 753e 37a7 79be ea73 b73e 85db 44be
00000390: 7c20 39bf 0f33 c7be fe6a 473f c2cc 15bd
000003a0: a92d a83e 97c1 4bbd a1fb 32bd 2a60 d63e
000003b0: dec6 66be 8840 303d 147b aebd 5e52 33be
000003c0: 188b b73d 0e58 2e3d 6501 dc3e 94d5 0a3f
000003d0: c888 61be 63af 1bbf 051a 0dbf aa93 213e
000003e0: d15f fd3e 9f79 c93e ba78 09bd 8eef d23d
000003f0: 3585 0fbf 1782 233f 57b8 2bbe 879f 41be
0.47148758 -0.7713952 -0.20267959 -0.07839825 -0.057582423 -0.3469861 0.15783936 0.46424562
-0.5449045 -0.3923576 -0.9009929 0.04107113 0.39331454 -0.21716295 0.8274755 -0.94457215
-0.37442127 -0.18478552 0.89196795 -0.7341767 -0.22334874 0.17435913 0.47093397 -0.23767738
-0.17209186 -1.1889269 -0.72465056 0.31971252 -0.46015614 -0.0590641 0.22578189 0.45116335
-0.010781156 -0.3715094 -0.6892522 0.3305416 -0.59919786 -0.32527784 0.52994746 -0.5541872
0.29415017 0.36058506 0.3790198 0.7718055 0.008463788 -0.4935506 0.03984342 -0.4469993
-0.24507952 -0.4248153 -0.24010618 0.2878747 -0.2337487 0.9626455 -0.5185674 0.28858957
0.28349113 1.0727285 -0.630992 0.018411849 -0.04195487 -0.7357955 -1.2204251 -0.32008243
0.13338281 -0.52273124 -0.34816447 -0.22089131 0.5876751 0.04777054 0.3258938 0.5343683
-0.46257257 0.046469655 -0.052271288 0.4758897 0.85165304 0.24724494 0.7100548 -0.0010372836
0.5929225 -0.19022712 0.9987237 -0.36174813 -0.8595566 -0.451811 0.4154168 -0.76746583
-0.17860071 -0.7917107 -0.2783331 0.22743277 -0.9668703 0.19185856 0.19543512 0.4788039
-0.27072558 0.22980906 -0.58271426 -0.17548315 -0.39871627 0.034936108 -0.1016568 -0.8027721
0.27761242 -0.13988963 0.004624977 0.46794987 -0.81582487 0.27018395 -0.43726602 -0.45859662
-0.055995233 -0.39306664 -0.28831807 -0.014003311 0.0010412107 0.66899276 -0.3227042 0.41563034
0.28455317 0.5857535 0.19788544 -0.23032431 0.39991614 -0.41129327 -0.30381754 -0.09882384
0.22149828 -0.4551649 -1.0458983 -0.340544 0.31810644 -0.27814403 -0.066828296 0.0024730084
1.0395185 -0.45456678 -0.24552959 0.13162278 -0.0982281 -0.0072777374 0.18912452 -0.39306858
0.8280768 0.16590694 0.16833319 0.48597378 -0.06826851 -0.17894523 0.06919408 0.082391314
-0.07758017 -0.18347694 -0.3089051 0.026810264 -0.42712742 -0.010187361 0.16252694 0.22331198
0.06316815 0.31736553 -0.5635382 0.010794393 0.378408 0.7140479 -0.19225654 -0.84512144
0.10978552 0.36500153 -0.36695525 0.32793063 0.2671102 0.37734988 0.16165724 0.25366226
-0.29175678 -0.13852605 -0.241199 0.41575143 0.4394285 0.3112425 -0.005220481 0.48380002
-0.10617209 0.13635027 0.5671381 0.35101297 0.45480564 -0.5065349 -0.2774543 0.0942372
0.17876513 -0.3219004 0.042682596 -0.9885892 0.08287898 -0.10396106 0.347507 -0.3180406
0.39583308 -0.9635288 -0.010408937 -0.34513924 0.31347224 -0.3367063 -0.58670694 -0.44303223
0.4371276 -0.027915753 0.25648108 -0.38294345 -0.0049336287 0.50134575 -0.43155384 0.28672305
-0.90675735 0.55825174 -0.109830424 0.3043096 0.49636394 0.052102637 0.3211949 0.1684506
0.24013488 -0.24380194 0.35830623 -0.19224365 -0.7231519 -0.38906142 0.7789763 -0.036572225
0.32847336 -0.04974517 -0.043697003 0.41870242 -0.225368 0.04303029 -0.08519569 -0.1751189
0.08962077 0.042564444 0.42969814 0.54232144 -0.22024834 -0.60814494 -0.5511783 0.15778986
0.49487165 0.39350602 -0.0335624 0.10299598 -0.5606263 0.63870376 -0.16769539 -0.18908511
