public/model_full.onnx (onnx, 760034 bytes, 15 tensors)

fc1.weight f4 [64, 64]
0	0x3d29d4bb	0.04146264
1	0xbd6eca1e	-0.058298223
2	0xbf1534aa	-0.58283484
3	0x3dd2915f	0.102816336
4	0x3df34626	0.11878614
5	0x3c959f8c	0.018264554
6	0x3e3dff07	0.18554316
7	0x3d117761	0.03551424
8	0x3d61ff38	0.055175036
9	0x3ef71150	0.48255396
10	0xbd9e641c	-0.07733938
11	0xbee36ed6	-0.444205
12	0xbebf592d	-0.37372723
13	0x3c570efa	0.013126129
14	0x3e9a97b1	0.30193856
15	0xbd3f5e6c	-0.046720907
16	0x3db010de	0.08596967
17	0x3e9e0ff6	0.30871552
18	0xbe7bc12f	-0.24585412
19	0x3e77c1b5	0.24194987
20	0xbce4207b	-0.02784752
21	0x3e50f028	0.20404112
22	0x3dd10b90	0.102072835
23	0x3d6e7aac	0.058222458
24	0x3d095f8d	0.03353839
25	0xbe0bc41c	-0.13649029
26	0xbe254bfb	-0.16142265
27	0xbe4799fd	-0.19492336
28	0xbcac27db	-0.021015098
29	0x3d47d07d	0.048782814
30	0x3e9e8b64	0.30965722
31	0x3e100eb7	0.14068113
32	0x3d9e835d	0.07739899
33	0x3ea9b4ae	0.3314566
34	0x3d8d4be6	0.06899242
35	0xbe4e5d65	-0.20152815
36	0xbe4aefa5	-0.1981798
37	0xbdd4238d	-0.10358343
38	0x3cfd0b18	0.030889079
39	0xbd7d2eeb	-0.061812323
40	0xbf244dcb	-0.641812
41	0xbc2116e6	-0.00983212
42	0xbe27289d	-0.16324086
43	0xbc4cef89	-0.0125082815
44	0xbe26ec1d	-0.16301008
45	0x3dc14485	0.09436897
46	0x3c5142c0	0.012772262
47	0xbea581ae	-0.323255
48	0xbe9fd6e8	-0.31218648
49	0x3ea201e9	0.31642082
50	0xbf2343c5	-0.63775283
51	0x3edd2c24	0.4319774
52	0x3f130c09	0.5744024
53	0x3cd3d811	0.025859864
54	0x3d8550bf	0.06509542
55	0x3e7c466d	0.2463624
56	0xbd79aa48	-0.06095341
57	0x3da1e143	0.079042934
58	0xbd78a4aa	-0.06070391
59	0xbd2a7a08	-0.041620284
60	0xbe13030c	-0.14356631
61	0x3c77803a	0.015106255
62	0xbd4108d3	-0.047127556
63	0xbe512f4f	-0.20428203
64	0x3e670333	0.22559814
65	0x3beb67c6	0.0071840016
66	0x3e8143d3	0.25247058
67	0xbdadef9e	-0.08492969
68	0x3d0a36bb	0.0337436
69	0x3d4f3fd8	0.050597996
70	0xbe917972	-0.28412968
71	0xbe89303d	-0.26794615
72	0x3e3d45fb	0.18483727
73	0xbe0680d8	-0.13135087
74	0x3e4ba669	0.19887699
75	0x3ea78f25	0.32726398
76	0xbd374b7b	-0.04474972
77	0xbdcd936a	-0.100378826
78	0xbe3cc127	-0.18433057
79	0xbeb5e2c2	-0.35524565
80	0xbb9ff45b	-0.0048814244
81	0x3e13f43f	0.14448641
82	0x3ed52b76	0.4163472
83	0x3d648d88	0.055799037
84	0xbc3a5ea1	-0.0113751
85	0xbd3d0d06	-0.046155
86	0xbd5f7dd1	-0.054563347
87	0xbd9ac9be	-0.075580105
88	0xbe8e731f	-0.27822205
89	0x3ea01514	0.3126608
90	0x3e3c7632	0.18404463
91	0x3d0a9a1e	0.033838384
92	0x3f0b0aa0	0.5431309
93	0x3e34e25a	0.17664471
94	0xbdd0617b	-0.10174843
95	0xbb8127f9	-0.0039415327
96	0xbe162b91	-0.14665057
97	0x3ea82bd0	0.32845926
98	0x3daf87e9	0.08570845
99	0xbea36859	-0.31915548
100	0x3d1abe81	0.037779335
101	0xbec19659	-0.3781002
102	0xbe61c586	-0.22048005
103	0xbed06fd3	-0.40710315
104	0x3da0d9bf	0.07854032
105	0x3d092c40	0.033489466
106	0x3eb4577b	0.35222992
107	0xbd8c5385	-0.068518676
108	0x3d908e4b	0.0705839
109	0x3d850801	0.06495667
110	0xbc77f384	-0.015133742
111	0x3dd5eeae	0.10445915
112	0xbe290cbf	-0.16508768
113	0xbf0373e2	-0.513487
114	0x3ed59385	0.4171411
115	0xbe0e48f5	-0.13895018
116	0xbd869c2c	-0.06572756
117	0x3c325502	0.010884525
118	0x3d9a1db1	0.075251944
119	0x3e0fb275	0.1403292
120	0xbdbc7735	-0.092024244
121	0x3e29e145	0.1658984
122	0x3e513d8d	0.20433636
123	0xbe8cf29b	-0.27528843
124	0x3dccfbd4	0.1000897
125	0x3da9e73c	0.082960576
126	0x3bdc58c5	0.0067244493
127	0x3cb7325b	0.022362879
128	0xbe41c3f4	-0.18922406
129	0xbeb226b6	-0.3479516
130	0x3e019095	0.1265281
131	0x3e1ea06d	0.15490885
132	0xbd34c3ce	-0.044132046
133	0xbe0a4a6f	-0.13504957
134	0xbe91dbea	-0.28488094
135	0x3eca1e53	0.3947626
136	0xbecf9c7e	-0.40549082
137	0x3e9eb195	0.3099486
138	0x3e89aac7	0.26888105
139	0xbd794795	-0.06085928
140	0x3e9257c9	0.285826
141	0x3f25474e	0.6456193
142	0x3e5728f1	0.21011712
143	0x3f0ef2dc	0.55839324
144	0x3ec75cf7	0.38938114
145	0x3e4358a0	0.19076777
146	0xbee0e7bb	-0.43926796
147	0xbe10dc48	-0.1414653
148	0xbd8aaa69	-0.067707844
149	0x3ee1f2f0	0.4413066
150	0x3e47c6d7	0.19509445
151	0xbd8faad0	-0.07015002
152	0x3d509709	0.05092529
153	0xbe89d81d	-0.26922694
154	0xbdca64e5	-0.09882525
155	0x3eac0ea3	0.33604917
156	0xbec531bc	-0.38514507
157	0xbf0e860c	-0.5567329
158	0xbec10c39	-0.37704638
159	0x3ece3808	0.40277123
160	0xbe041f77	-0.12902628
161	0xbe3b75ba	-0.18306628
162	0xbed41be0	-0.41427517
163	0xbe89f1aa	-0.26942188
164	0xbe837596	-0.25675648
165	0x3df20d9b	0.11819001
166	0xbe157174	-0.1459406
167	0x3e93d560	0.2887373
168	0xbeae9fa5	-0.34106174
169	0xbd1e9b67	-0.038722422
170	0x3ddab2f9	0.106786676
171	0x3d253d39	0.04034159
172	0x3edfe4e9	0.43729332
173	0xbda0f21d	-0.078586794
174	0x3eaed029	0.3414319
175	0x3ea57404	0.32315075
176	0x3eb3b98b	0.35102496
177	0x3d681f10	0.05667025
178	0x3cd16340	0.025560021
179	0xbe3c6043	-0.18396096
180	0xbd677a06	-0.056512855
181	0xbf0f9806	-0.56091344
182	0x3e8b2564	0.27176964
183	0xbea9a2c1	-0.33131984
184	0x3cd886e4	0.026431508
185	0xbec807a9	-0.39068344
186	0xbe43cd8b	-0.19121377
187	0x3ef1afb0	0.4720435
188	0x3c932ee4	0.017966695
189	0xbd942bb0	-0.07234895
190	0x3e8e5416	0.27798527
191	0x3e9f3a89	0.31099346
192	0x3dd9edc4	0.10641053
193	0xbecb0578	-0.3965261
194	0xbe802e97	-0.25035545
195	0xbe7a5d05	-0.24449547
196	0xbc658700	-0.014009237
197	0x3e51c998	0.20487058
198	0xbeaca058	-0.33716083
199	0x3d40ecde	0.047100894
200	0x3c43ee0e	0.011958612
201	0x3e4dc6d5	0.2009538
202	0x3f05d7de	0.5228251
203	0x3f0e8792	0.55675614
204	0x3d8354eb	0.06412681
205	0x3df1fcb4	0.118157774
206	0x3e5685e1	0.20949508
207	0xbe8663c4	-0.2624799
208	0x3ee2ae24	0.44273484
209	0x3dae4583	0.08509352
210	0x3edc9cbb	0.43088326
211	0xbeaedea0	-0.34154224
212	0xbdd6ded2	-0.10491718
213	0x3da87c68	0.082268536
214	0xbeb1c4b2	-0.3472038
215	0xbed1d063	-0.409793
216	0xbdf27d71	-0.11840332
217	0x3da19598	0.07889861
218	0x3e0a9823	0.13534598
219	0x3e5fea6c	0.21866769
220	0xbd01cf18	-0.03169164
221	0x3e3b0ca7	0.18266545
222	0x3dc22400	0.09479523
223	0x3f171f7c	0.59032416
224	0xbe8126ac	-0.25224817
225	0xbc9fab8f	-0.019490985
226	0x3e91aeb8	0.28453612
227	0xbe298151	-0.16553237
228	0xbdc479f1	-0.09593571
229	0xbd48eca1	-0.049053792
230	0xbf184131	-0.59474474
231	0xbe8962a2	-0.26833063
232	0xbdfb058f	-0.122569196
233	0x3ecf32a8	0.40468335
234	0xbd65c4e7	-0.056095984
235	0xbee7ee33	-0.4529892
236	0x3eabce4c	0.3355583
237	0x3ed88330	0.42287588
238	0xbea5e97b	-0.32404694
239	0xbe937da2	-0.28806788
240	0xbef2e924	-0.47443497
241	0xbe88eafd	-0.26741782
242	0xbe9d28b4	-0.30695117
243	0xbdad76e2	-0.08469941
244	0x3e286dad	0.16448088
245	0xbe7dd8a8	-0.24789679
246	0x3da5b0f0	0.08090389
247	0x3edf778d	0.43645898
248	0xbe2b4e2b	-0.16729037
249	0xbf0716b6	-0.5276903
250	0xbc993cef	-0.018705813
251	0xbc00af66	-0.007854318
252	0x3e956df9	0.29185465
253	0x3ec366d3	0.38164386
254	0x3ee524ef	0.4475474
255	0x3e493ee3	0.19652896

fc1.bias f4 [64]
0	0xbd54d57c	-0.051961407
1	0x3c220ac7	0.009890265
2	0x3d40cbfa	0.047069527
3	0x3af2910e	0.0018506364
4	0xbdca3ee3	-0.09875276
5	0x3d1c127d	0.03810357
6	0x3d2c950e	0.042134337
7	0xbdb749de	-0.08949636
8	0xbe0346ed	-0.12820025
9	0x3d12fd1f	0.035885926
10	0x3d6cefc2	0.05784584
11	0xbccca161	-0.024979295
12	0x3c9a6c24	0.018850394
13	0xbde7ec85	-0.113244094
14	0xbd0b1915	-0.033959467
15	0x3e8b487d	0.27203742
16	0xbd8b3dc2	-0.06798889
17	0xbcbe010f	-0.023193864
18	0x3d021a72	0.0317635
19	0x3e3c5f4d	0.1839573
20	0xbe3db29e	-0.18525168
21	0x3e0e1afa	0.13877478
22	0xbe068907	-0.1313821
23	0x3d98ce33	0.074612044
24	0xb984a507	-0.00025299957
25	0xbd8fac5a	-0.07015295
26	0x3d87592a	0.066088036
27	0x3cf47f00	0.029845715
28	0x3dd2b0a1	0.102875955
29	0xbe096440	-0.13417149
30	0xbce265c9	-0.027636426
31	0x3bc86681	0.006115735
32	0x3ded2cfc	0.11580846
33	0xbd2319a0	-0.03981936
34	0xbd515241	-0.051103834
35	0x3c561f58	0.013068996
36	0x3cd5be94	0.026091851
37	0x3dc59bae	0.09648834
38	0x3d871cc7	0.06597286
39	0xbcdc5f96	-0.026901048
40	0xbd3a252d	-0.04544561
41	0xbda2aa35	-0.07942621
42	0xbd209e8a	-0.039213695
43	0xbca15624	-0.019694395
44	0xbe007ecc	-0.12548369
45	0xbdd197cc	-0.10234031
46	0x3d88dab5	0.0668234
47	0xbd581592	-0.052754946
48	0x3dae2ca0	0.08504605
49	0xbca43dae	-0.020048942
50	0x3d16513d	0.03669857
51	0x3e009d3f	0.12559985
52	0x3c678210	0.01413013
53	0xbd8c8994	-0.068621784
54	0x3d4a8705	0.04944517
55	0x3bdfdfef	0.006832115
56	0xbd435310	-0.047686636
57	0x3b71df9d	0.0036906966
58	0xbc0e4779	-0.008684033
59	0x3d6b6617	0.057470407
60	0xbc6e5c0a	-0.014548311
61	0xbd1cd596	-0.03828963
62	0x3c1ce61e	0.009576349
63	0x3d280aee	0.04102605

fc2.weight f4 [32, 64]
0	0xbe0982c4	-0.1342879
1	0xbdc7d683	-0.09757712
2	0x3eb3b910	0.3510213
3	0xbec3839b	-0.38186345
4	0xbd402f6e	-0.046920232
5	0x3e5408f2	0.20706537
6	0xbd31b8f6	-0.043389283
7	0xbcc4d6ec	-0.024028264
8	0x3e26f1a7	0.1630312
9	0x3cda6a97	0.026662154
10	0x3cb1f5ec	0.02172371
11	0x3e95fd83	0.29294977
12	0xbdfceb88	-0.123496115
13	0x3d811c0e	0.06304179
14	0xbe71bb42	-0.2360659
15	0xbe1e3a71	-0.15451981
16	0xbed1ac2b	-0.40951666
17	0x3d8c6c41	0.06856585
18	0xbc282b1b	-0.010264183
19	0x3eae1425	0.33999744
20	0xbde4677e	-0.11152552
21	0xbd9ac92b	-0.07557901
22	0x3e8e1e44	0.27757466
23	0xbddc72c1	-0.10764075
24	0xbe3c4e4a	-0.1838924
25	0x3dc0ee30	0.09420431
26	0x3dfceae9	0.12349493
27	0x3e28e12c	0.16492146
28	0xbc98dd88	-0.018660322
29	0xbe98db48	-0.29854798
30	0xbd90607d	-0.07049654
31	0x3e342f42	0.17596152
32	0x3dad6575	0.08466617
33	0xbcb13e82	-0.021636251
34	0x3d7f4d55	0.06232961
35	0x3cbbf279	0.022942768
36	0x3f197482	0.599434
37	0x3e969cc6	0.29416484
38	0xbea793e2	-0.32730013
39	0x3d1916ed	0.03737538
40	0xbd0c9900	-0.0343256
41	0x3d00bcc8	0.031430036
42	0xbe5884dc	-0.21144432
43	0xbebd6c3e	-0.36996645
44	0xbe85fba2	-0.26168543
45	0x3f5305e1	0.82430845
46	0x3e8494e8	0.25894856
47	0xbe23fa91	-0.16013552
48	0x3e0f8a77	0.14017664
49	0x3d7c2b6f	0.06156486
50	0xbda739b1	-0.08165301
51	0xbdaa460c	-0.08314142
52	0xbc829f4f	-0.015945105
53	0x3d8b81ce	0.06811868
54	0xbe05eb7d	-0.13078113
55	0x3e26eee0	0.16302061
56	0xbb358dd7	-0.0027702951
57	0x3e27b25c	0.16376632
58	0x3da43e86	0.08019738
59	0x3e231da2	0.15929273
60	0x3e915185	0.28382507
61	0x3b9767dc	0.0046205353
62	0xbe3c5edb	-0.1839556
63	0x3d72f996	0.059320055
64	0xbe54f5b6	-0.20796856
65	0xbdb7bc5b	-0.08971473
66	0x3eebdd91	0.4606748
67	0xbe76e0b3	-0.24109153
68	0x3d9cebb2	0.07662143
69	0x3e5a8de7	0.21343194
70	0xbd0b2418	-0.03396997
71	0x3d3ad77c	0.04561566
72	0xbca57292	-0.020196233
73	0x3baef364	0.005339073
74	0xbd70319a	-0.058641054
75	0x3dbd8733	0.09254303
76	0xbe13c672	-0.1443117
77	0x3de6f348	0.11276871
78	0xbcbfca71	-0.023411961
79	0x3c0e7937	0.008695892
80	0xbebf558e	-0.3736996
81	0xbdca3e05	-0.098751105
82	0xbc5d8fc9	-0.013523051
83	0x3dfe8c36	0.12429087
84	0xbd0b1879	-0.033958886
85	0xbe4a8030	-0.19775462
86	0x3d8b9f32	0.068174735
87	0x38ec7721	0.000112755464
88	0x3e372e80	0.17888832
89	0xbe1c1ca5	-0.15245302
90	0xbcb7217f	-0.02235484
91	0x3dc17b29	0.09447319
92	0xbde4ac59	-0.11165685
93	0xbc3cef59	-0.011531674
94	0x3eb3554d	0.35026017
95	0xbe98b9af	-0.29829165
96	0xbe507371	-0.20356537
97	0xbe783c5b	-0.24241774
98	0x3daf3042	0.08554126
99	0xbe83a932	-0.25715023
100	0x3caa0200	0.020752907
101	0xbe152502	-0.14564899
102	0xbe34e812	-0.17666653
103	0x3d3ae94b	0.04563264
104	0xbdddb4d1	-0.108255036
105	0xbe02c24d	-0.12769432
106	0xbe66e561	-0.22548439
107	0x3cb92a77	0.022603257
108	0x3cc88697	0.02447824
109	0x3e29aa64	0.16568905
110	0x3e694b33	0.22782592
111	0x3c489625	0.0122428285
112	0x3e91d250	0.28480768
113	0x3e0472af	0.12934373
114	0x3d1adf00	0.037810326
115	0x3dad49df	0.084613554
116	0xbd455ee6	-0.048186205
117	0xbe24e79b	-0.16103975
118	0xbda6c2e6	-0.08142643
119	0x3c6765de	0.014123408
120	0xbe310650	-0.17287564
121	0xbd7f2e32	-0.062299915
122	0xbd891aa1	-0.06694532
123	0xbdaf2187	-0.08551317
124	0x3e154934	0.14578706
125	0xbdd6867a	-0.10474868
126	0x3ce65651	0.02811733
127	0x3b79eae9	0.0038134402
128	0x3ea3ede3	0.3201743
129	0x3d46defe	0.048552506
130	0xbe6005c6	-0.21877202
131	0xbe3a0d2b	-0.18169086
132	0xbe9716ac	-0.29509485
133	0x3ac9d6f6	0.0015399146
134	0xbe586c17	-0.21134983
135	0xbe036a87	-0.12833606
136	0xbd38b2a4	-0.04509224
137	0xbbc463e7	-0.0059933546
138	0xbd84c13c	-0.06482169
139	0x3c78bec5	0.015182202
140	0xbe5ca095	-0.21545632
141	0xbdfc1b66	-0.12309913
142	0xbc5780f2	-0.013153302
143	0x3dd9a123	0.106264375
144	0x3e05bfcd	0.13061447
145	0xbdd1d2a1	-0.102452524
146	0xbddf3589	-0.10898883
147	0x3def3329	0.1167968
148	0xbd3a3efe	-0.04547023
149	0x3e05cf48	0.13067353
150	0xbd761670	-0.06007999
151	0x3e000c03	0.12504582
152	0x3c5818c1	0.013189496
153	0x3c2a8973	0.010408747
154	0xbd186e9b	-0.037214857
155	0x3e4d97ed	0.20077486
156	0x3e53c77b	0.20681565
157	0xbe686bd4	-0.22697383
158	0xbdc3471f	-0.0953505
159	0x3c4da6fc	0.012552019
160	0x3d443709	0.047904048
161	0xbb0d4283	-0.0021554537
162	0x3dd9d7b5	0.10636846
163	0xbe35c6a8	-0.17751563
164	0xbe48ce47	-0.19609939
165	0xbd75804f	-0.059936818
166	0x3daa4853	0.08314576
167	0x3d9d1d4a	0.07671602
168	0xbdbedc2b	-0.093193375
169	0xbde18f77	-0.11013692
170	0xbc854ca5	-0.016271899
171	0xbd72cb5a	-0.059275962
172	0x3c64c203	0.013962272
173	0x3dad49fb	0.08461376
174	0xbdc7a295	-0.09747807
175	0xbde072e5	-0.109594144
176	0x3ea5428b	0.3227733
177	0xbbbdb928	-0.0057898946
178	0xbd42f6c5	-0.04759862
179	0x3cce9fbc	0.025222652
180	0xbe41b2a9	-0.1891581
181	0xbb08c9ec	-0.0020872308
182	0x3e310d81	0.17290308
183	0x3e3f3f2a	0.18676439
184	0xbd4c98af	-0.049950298
185	0xbd986022	-0.07440211
186	0xbe7f0cd2	-0.24907234
187	0xbce0424d	-0.027375365
188	0x3d79c1a7	0.060975697
189	0x3df27a94	0.11839786
190	0x3e49f808	0.19723523
191	0x3e506e60	0.20354605
192	0xbd889018	-0.06668109
193	0xbcf51eed	-0.029921973
194	0xbe8a7226	-0.27040213
195	0xbe930992	-0.2871824
196	0x3e3b185e	0.18271014
197	0xbee5ea54	-0.4490534
198	0xbe46f891	-0.19430758
199	0xbe864e7c	-0.26231754
200	0x3e8b96f0	0.27263594
201	0x3bcb7937	0.0062095183
202	0xbecf39df	-0.4047384
203	0x3ce698ed	0.028149093
204	0x3d67b017	0.056564417
205	0xbdc2ca4f	-0.095112436
206	0xbd321cd0	-0.04348451
207	0xbef79ccc	-0.48361814
208	0xbe9aad9c	-0.30210578
209	0xbec55a56	-0.38545483
210	0xbc8cc615	-0.017184297
211	0xbd3107ff	-0.043220516
212	0x3e178c76	0.14799675
213	0xbe8c8342	-0.27443892
214	0x3e92b9fa	0.28657514
215	0x3cb94f11	0.02262071
216	0x3d8bb509	0.06821639
217	0xbc88bb58	-0.016690895
218	0xbeeda3fd	-0.46414176
219	0xbddc57a9	-0.10758907
220	0xbe1c9b8f	-0.15293716
221	0x3e4d9ff2	0.20080546
222	0x3eaa5845	0.3327047
223	0xbb0aba43	-0.002116815
224	0xbe7aee42	-0.2450495
225	0xbdcf1b04	-0.10112575
226	0xbe0641cb	-0.13111036
227	0x3d1891c6	0.037248395
228	0x3e15c84d	0.1462719
229	0xbe9d20e7	-0.30689165
230	0x3e3c0b85	0.1836377
231	0x3e2b2449	0.1671306
232	0xbda379bc	-0.07982203
233	0x3db3bad4	0.08775869
234	0x3ca30f20	0.019904673
235	0x3d54d2bf	0.051958796
236	0x3e81fdd5	0.2538897
237	0xbec7f384	-0.39052975
238	0x3e08d0ae	0.13360855
239	0xbec81101	-0.39075473
240	0x3e90f8f1	0.28314927
241	0x3c5cdd3b	0.01348048
242	0xbe57326e	-0.21015331
243	0xbe22764f	-0.15865444
244	0xbe57ec76	-0.21086296
245	0x3ca5c7ce	0.020236876
246	0xbd4b86a1	-0.04968894
247	0x3e7b5753	0.2454503
248	0x3c6b5a32	0.014364766
249	0xbe95456c	-0.29154527
250	0xbdecc097	-0.11560171
251	0x3e4150af	0.18878435
252	0x3e9ee7f8	0.31036353
253	0xbdb18bd6	-0.0866925
254	0x3e47fef9	0.19530858
255	0x3da666bc	0.08125064

fc2.bias f4 [32]
0	0x3d2c1101	0.042008404
1	0xbd99d351	-0.075110085
2	0x3e42eedd	0.19036432
3	0xbe97a963	-0.2962142
4	0xbedceaad	-0.43147793
5	0xbe6d4dc7	-0.23174201
6	0x3b75e2fe	0.003751933
7	0x3deabad9	0.114614196
8	0x3d81343f	0.06308793
9	0xbe065210	-0.13117242
10	0xbe233d19	-0.15941276
11	0xbce2657d	-0.027636284
12	0x3d16c658	0.03681025
13	0xbc9bdefc	-0.019027226
14	0x3e83e86e	0.25763267
15	0xbe0d9dc4	-0.13829714
16	0x3c2c0fbd	0.010501799
17	0x3e306156	0.1722463
18	0xbe0392f7	-0.12849031
19	0xbdf3e0ba	-0.119080976
20	0xbc56d074	-0.013111223
21	0xbd2a123d	-0.0415213
22	0xbd3b62bf	-0.04574847
23	0x3e27aa57	0.16373573
24	0x3e01e5f3	0.12685375
25	0xbe9533f1	-0.2914119
26	0x3e000fcf	0.1250603
27	0x3de4b835	0.11167947
28	0xbdb6e12a	-0.089296654
29	0x3defa5aa	0.1170152
30	0xbe8ef062	-0.27917773
31	0x3d685acd	0.05672722

output.weight f4 [27, 32]
0	0xbdd929c7	-0.106036715
1	0xbd028871	-0.031868402
2	0x3d83b2d2	0.06430592
3	0x3dbe7dcb	0.09301337
4	0x3e8224d9	0.25418738
5	0x3caa4ce3	0.020788616
6	0xbdc5a754	-0.09651056
7	0xbe2ce5aa	-0.16884485
8	0x3e8b3428	0.2718823
9	0xbc937f89	-0.01800515
10	0xbdcd539f	-0.10025715
11	0x3e035896	0.12826762
12	0x3cdd857d	0.027041191
13	0x3cfea862	0.03108615
14	0x3e89c109	0.26905087
15	0xbe84bb19	-0.25923994
16	0x3da2697f	0.07930278
17	0x3ebe5ee9	0.37181786
18	0xbe2ad599	-0.16683044
19	0x3da4cd0c	0.08046922
20	0xbe4a9182	-0.1978207
21	0x3ceb9908	0.028759494
22	0x3b9ab073	0.0047207414
23	0x3e8fb907	0.28070852
24	0xbe36e5e4	-0.17861134
25	0xbd99841b	-0.074959
26	0x3eb182ee	0.34670204
27	0xbde47e54	-0.11156908
28	0xbea19e9b	-0.3156632
29	0x3d0e3fac	0.03472869
30	0x3f08dd71	0.5346289
31	0x3db95a28	0.09050399
32	0x3e4a1ea2	0.19738248
33	0x3e8a11b6	0.26966637
34	0xbe62374a	-0.22091404
35	0x3ee1b05f	0.44079873
36	0x3e2c5324	0.1682859
37	0x3e99adf4	0.30015528
38	0xbd294bdb	-0.041332107
39	0xbccb7779	-0.024837242
40	0xbe116ebc	-0.14202398
41	0xbdd08b38	-0.10182804
42	0x3e75e672	0.24013689
43	0xbe3f5ab7	-0.18686949
44	0xbe02d7b4	-0.12777597
45	0xbdcb5767	-0.0992878
46	0xbedf6d84	-0.4363824
47	0xbd254ccb	-0.04035644
48	0x3e33cbbd	0.17558189
49	0xbd986a1d	-0.074421145
50	0x3e69656a	0.22792593
51	0x3e85a291	0.2610059
52	0x3e38552e	0.18001243
53	0xbdb6bd4b	-0.089228235
54	0xbebdb818	-0.37054515
55	0xbe85325e	-0.2601499
56	0xbe03d213	-0.12873106
57	0x3ecc3e33	0.39891204
58	0xbd1aab64	-0.037761107
59	0xbdd09650	-0.1018492
60	0xbdae4682	-0.08509542
61	0xbdcba7d4	-0.0994412
62	0x3d8402d8	0.06445855
63	0x3e4a0291	0.19727542
64	0x3eb5a7cb	0.35479578
65	0x3e030de2	0.12798265
66	0xbdd18a55	-0.10231463
67	0x3e921f02	0.28539282
68	0xbe75c6a7	-0.24001561
69	0x3ec3c80b	0.38238558
70	0x3def3307	0.116796546
71	0x3eaa9a43	0.33320817
72	0xbe8b6203	-0.27223215
73	0x3d4151ae	0.047197036
74	0x3e6f86cc	0.23391265
75	0xbd11c06f	-0.03558391
76	0xbcd769df	-0.0262956
77	0xbe2602ff	-0.1621208
78	0xbe600e58	-0.21880472
79	0x3e1b7979	0.15183057
80	0xbcd00d83	-0.025397068
81	0xbeae14c3	-0.34000215
82	0x3e674e01	0.2258835
83	0x3e491e96	0.19640574
84	0x3de4d655	0.11173693
85	0xbdbc336f	-0.09189498
86	0x3e281ed3	0.16418009
87	0xbdda4277	-0.106572084
88	0x3e8f77a3	0.28020963
89	0x3e585908	0.21127713
90	0xbdf3cb74	-0.1190404
91	0x3e2f6bc1	0.17130949
92	0x3e829e40	0.2551136
93	0x3d11afc5	0.035568018
94	0xbe1b23c5	-0.15150364
95	0xbdc843e0	-0.09778571
96	0x3df6f04a	0.1205755
97	0x3e944377	0.28957722
98	0xbe1cb984	-0.15305144
99	0x3dd9fcd9	0.1064393
100	0xbe4be7a6	-0.19912586
101	0x3e058648	0.13039505
102	0xbc7a1816	-0.015264532
103	0x3dbcc030	0.09216344
104	0x3e85872f	0.260797
105	0x3d6367fc	0.05551909
106	0x3ded6ab9	0.11592621
107	0x3eb04293	0.34425792
108	0xbdb3ccad	-0.08779273
109	0xbeb4e807	-0.35333273
110	0x3eb9ed4f	0.36313865
111	0x3e8a5318	0.2701652
112	0x3d1ad427	0.03779998
113	0xbdf4b9c4	-0.119494945
114	0x3eb97828	0.36224484
115	0xbbbfd47f	-0.005854189
116	0xbcf8278a	-0.030292291
117	0x3ec33075	0.38122907
118	0xbdf58b48	-0.119894564
119	0xbe50adb1	-0.20378758
120	0x3e280711	0.16408946
121	0xbd9032ec	-0.070409626
122	0xbea4ffe9	-0.32226494
123	0x3dece0d8	0.11566323
124	0x3eec0fa1	0.46105674
125	0xbd4cabf2	-0.049968667
126	0x3eb830f4	0.35974848
127	0xbec6cebe	-0.38829607
128	0x3e851e45	0.25999656
129	0x3ec7607a	0.38940793
130	0x3d21dafe	0.039515488
131	0x3e588390	0.21143937
132	0xbd9320a2	-0.071839586
133	0x3d738057	0.059448566
134	0xbd28e44b	-0.041233342
135	0xbd14d329	-0.03633419
136	0x3e7766db	0.2416033
137	0xbed9b556	-0.4252116
138	0xbe24ffbc	-0.1611318
139	0xbdac6978	-0.08418554
140	0xbe3985f3	-0.18117504
141	0xbbe99a24	-0.0071289707
142	0xbe2471b4	-0.16059
143	0x3d8bcdf9	0.068263955
144	0xbe716c20	-0.23576403
145	0x3e808fc7	0.25109693
146	0x3ed85049	0.42248753
147	0x3e83d6b8	0.25749755
148	0x3cc92742	0.024554852
149	0xbe4fab51	-0.20280196
150	0xbee6faf6	-0.45113343
151	0xbec9b6a1	-0.39397147
152	0xbc4bb4ae	-0.012433214
153	0x3e263a30	0.16233134
154	0xbe765043	-0.24054055
155	0x3eade08d	0.3396038
156	0x3e8467e9	0.25860527
157	0xbde3961c	-0.111126155
158	0xbe0f773c	-0.14010328
159	0xbeca4514	-0.39505827
160	0x3e9fee54	0.31236517
161	0x3e899791	0.26873448
162	0x3d82d9f1	0.06389225
163	0x3dee03fe	0.11621855
164	0x3e369d10	0.17833352
165	0x3e8a6a07	0.27034017
166	0xbcf2efb6	-0.029655319
167	0xbd5e1e4b	-0.05422811
168	0xbe92f26a	-0.28700572
169	0xbe63b2b9	-0.22236146
170	0xbe188b02	-0.14896777
171	0xbdeeae2f	-0.11654317
172	0xbdf84cf5	-0.121240534
173	0xbd527fed	-0.05139153
174	0xbe364c26	-0.17802486
175	0xbe541ef9	-0.2071494
176	0x3de29ec3	0.11065438
177	0xbd5fb856	-0.054619156
178	0xbd3aca50	-0.045603096
179	0x3d00ac35	0.03141423
180	0x3ea8f051	0.32995847
181	0xbe72e3fb	-0.2371978
182	0xbc8ed1ce	-0.017434027
183	0xbe9591e5	-0.2921287
184	0x3e1e515e	0.15460727
185	0x3e41b76d	0.18917628
186	0x3e3669cb	0.17813794
187	0x3e01d8d8	0.12680376
188	0xbe74c1b2	-0.23902014
189	0xbd58728d	-0.05284362
190	0x3dd78283	0.1052294
191	0x3dfbd14c	0.122957796
192	0xbe8213fd	-0.25405875
193	0xbe8e8b5f	-0.27840707
194	0x3de07c24	0.10961178
195	0x3ded8df4	0.11599341
196	0xbe7cc0f7	-0.24682985
197	0x3e4c8f9e	0.1997666
198	0x388275b0	6.220804e-05
199	0x3e660960	0.22464514
200	0xbd92cccf	-0.071679704
201	0x3e9ebb7c	0.31002414
202	0x3e8b9e30	0.27269125
203	0x3ccd93b9	0.025094854
204	0x3e4f0c20	0.20219469
205	0xbdb4e071	-0.08831871
206	0x3d94bf8d	0.07263098
207	0xbe33ce6f	-0.17559217
208	0x3ddf28cc	0.10896453
209	0xbd803ad8	-0.062612236
210	0xbe8159a5	-0.25263706
211	0x3ca32dca	0.019919295
212	0xbe59d3cc	-0.212722
213	0x3d388244	0.045046106
214	0x3e9d516e	0.30726188
215	0x3eaa8990	0.33308077
216	0x3e3a9952	0.1822255
217	0xbd0f7568	-0.035024077
218	0x3d855681	0.0651064
219	0xbe4731cc	-0.1945259
220	0xbd739de8	-0.059476763
221	0x3e8dd304	0.27700055
222	0x3e2a4583	0.16628079
223	0x3e95d378	0.292629
224	0xbd631dd7	-0.05544838
225	0xbe3dd915	-0.18539841
226	0x3e7a7d0c	0.24461764
227	0x3ead62d7	0.3386447
228	0xbd730a8d	-0.059336234
229	0x3e89b616	0.26896733
230	0x3c4db3a5	0.012555038
231	0x3e568c56	0.20951971
232	0xbcc74fe3	-0.024330085
233	0x3db37b8b	0.08763798
234	0x3db41ce3	0.08794572
235	0xbea55683	-0.32292566
236	0x3e69762f	0.2279899
237	0xbd474ef4	-0.04865928
238	0xbec22aee	-0.37923378
239	0xbe6c80a0	-0.23095942
240	0xbe4088b9	-0.18802156
241	0x3daede82	0.08538534
242	0xbdd978c0	-0.10618734
243	0x3e86f417	0.263581
244	0xbd6b2c26	-0.05741515
245	0xbead952c	-0.33902872
246	0x3e14cdca	0.14531627
247	0x3d8a3186	0.06747727
248	0x3c888cc3	0.016668683
249	0x3d9d3d33	0.076776884
250	0x3e2e1944	0.17001826
251	0xbc3d4e99	-0.011554384
252	0xbe33c61d	-0.17556043
253	0x3e2c02d3	0.16797952
254	0xbd9ba467	-0.07599717
255	0x3e81ddf3	0.25364646

output.bias f4 [27]
0	0xbdd973a7	-0.10617762
1	0xbee45de5	-0.44602886
2	0xbdbb6eb8	-0.09151977
3	0xbe06224d	-0.13099022
4	0xbd843479	-0.06455321
5	0xbec3e717	-0.38262245
6	0x3e4ffa18	0.20310247
7	0xbeb73962	-0.35785967
8	0xbdd6475e	-0.10462831
9	0xbf4dc50c	-0.80378795
10	0xbe5211e1	-0.20514633
11	0xbe579f5f	-0.21056889
12	0xbe397653	-0.18111543
13	0x3f1bb449	0.6082197
14	0x3bc2b2f1	0.0059417416
15	0xbbc6c5bf	-0.0060660536
16	0x3c28e082	0.010307433
17	0x3ee63eb7	0.44969723
18	0x3d89ef68	0.06735116
19	0xbe1fe365	-0.15614088
20	0x3d32cb59	0.04365096
21	0xbe2c6d69	-0.16838612
22	0xbb95f072	-0.0045757825
23	0xbeae9a61	-0.34102157
24	0x3e34f76a	0.17672506
25	0xbebae53b	-0.36503014
26	0xc0da4560	-6.8209686

onnx::LSTM_248 f4 [1, 256, 63]
0	0xbeab04ae	-0.33402008
1	0xbe436b65	-0.19083937
2	0x3db13a1a	0.0865366
3	0xbec82286	-0.3908884
4	0xbe776694	-0.24160224
5	0xbf11fd9e	-0.57027614
6	0xbea9eb79	-0.33187464
7	0xbe056eac	-0.13030499
8	0xbeec8b65	-0.462001
9	0xbe3d4cf5	-0.18486388
10	0xbe87626c	-0.26442277
11	0xbe2c79d1	-0.16843344
12	0xbe71661e	-0.23574111
13	0xbd839af1	-0.06426037
14	0xbe2ca416	-0.16859469
15	0xbe9116a4	-0.28337586
16	0xbe2cee05	-0.16887672
17	0xbee79d16	-0.45237035
18	0xbec866b4	-0.39140856
19	0xbeaa5e88	-0.33275247
20	0xbefaa6fd	-0.48955527
21	0xbe008e64	-0.12554318
22	0xbded2ff6	-0.115814134
23	0xbe953a88	-0.29146218
24	0xbe26cbea	-0.16288725
25	0x3d17c469	0.037052546
26	0x3dc045b6	0.09388296
27	0xbeaf96b8	-0.34294677
28	0xbe383f1b	-0.17992823
29	0xbeac51f3	-0.33656272
30	0xbe773886	-0.24142656
31	0xbe7ad10c	-0.24493808
32	0xbe56a6dc	-0.2096209
33	0xbe36c1a1	-0.17847301
34	0xbdbb8443	-0.09156086
35	0x3d83e735	0.064405836
36	0xbde18d3f	-0.11013269
37	0xbe824bf2	-0.25448567
38	0x3e590026	0.21191463
39	0xbeb4caeb	-0.35311064
40	0xbe404ef8	-0.18780124
41	0xbd1024c4	-0.035191312
42	0xbe883e43	-0.26610002
43	0xbe7730eb	-0.24139754
44	0xbd64f3c0	-0.05589652
45	0xbe8badc7	-0.2728102
46	0xbe499179	-0.196844
47	0x3e0db169	0.13837208
48	0xbece6f80	-0.40319443
49	0xbe17d104	-0.14825827
50	0x3e77117a	0.2412776
51	0xbef2bf1f	-0.4741144
52	0xbe960ab6	-0.29305047
53	0x3c1d4ef7	0.009601346
54	0xbead3adb	-0.33833966
55	0xbee3d079	-0.4449499
56	0x3dc39389	0.095496245
57	0xbee2543d	-0.44204894
58	0xbec15ded	-0.37766972
59	0x3ca0bd29	0.019621449
60	0xbec84e3e	-0.39122194
61	0xbe3c1aa6	-0.1836954
62	0x3e92a827	0.28643915
63	0xbcf247f5	-0.029575327
64	0x3d99b8c4	0.07505944
65	0x3c3c69ee	0.011499865
66	0x3d20030a	0.0390654
67	0x3df3cbe8	0.119041264
68	0x3e98069d	0.29692546
69	0xbd596b0b	-0.0530806
70	0x3e2c482d	0.16824408
71	0x3e020416	0.12696871
72	0xbd4f5fae	-0.050628357
73	0x3e3393b0	0.17536807
74	0x3d076779	0.033057664
75	0x3cb5e3b4	0.022203304
76	0x3e74cd0a	0.23906341
77	0x3d4184be	0.047245733
78	0xbdebfb47	-0.11522537
79	0x3e7d29e8	0.24723017
80	0xbca72c78	-0.020406947
81	0x3d8b185d	0.06791756
82	0x3db24eb2	0.08706416
83	0xbe26d0c0	-0.1629057
84	0x3e40d75f	0.18832158
85	0x3ed9be9f	0.42528245
86	0xbeb8cd4e	-0.36094135
87	0x3d39d7d9	0.045371864
88	0x3f0e3193	0.55544394
89	0xbefa5060	-0.48889446
90	0x3d6f4b59	0.058421466
91	0x3d77586f	0.06038707
92	0xbe669b1a	-0.22520104
93	0x3c511586	0.012761479
94	0x3e462d8e	0.19353315
95	0xbdf75c0e	-0.12078105
96	0x3c36db75	0.011160721
97	0x3d8512ef	0.06497752
98	0xbdd7cdbc	-0.105372876
99	0x3db89d2c	0.09014353
100	0x3e4b78dd	0.19870324
101	0xbe9d60b7	-0.3073785
102	0xbd834a0d	-0.064106084
103	0x3e4216da	0.1895403
104	0xbe4e76b4	-0.20162469
105	0x3d6f7060	0.05845678
106	0x3e2accec	0.16679734
107	0x3e7a1c60	0.24424887
108	0xbd5da731	-0.054114524
109	0x3e218a03	0.15775304
110	0x3eb9ad90	0.3626523
111	0x3d1744a8	0.03693071
112	0x3e467142	0.19379142
113	0x3e744396	0.23853907
114	0x3cf51c5d	0.029920751
115	0x3dd92eba	0.106046155
116	0xbe86219b	-0.26197514
117	0x3b9e6206	0.0048334626
118	0x3e0d37bf	0.13790797
119	0x3e4c4070	0.19946456
120	0x3cf2bef7	0.029632075
121	0x3d909b5c	0.070608824
122	0x3ec889c0	0.39167595
123	0x3d8a5052	0.06753601
124	0xbe48ac4c	-0.19596976
125	0x3ea12aa0	0.31477833
126	0xbcba5944	-0.022747643
127	0x3e0eb930	0.13937831
128	0x3d1980d2	0.03747637
129	0xbd77d583	-0.060506355
130	0x3dadb380	0.084815025
131	0xbf25139f	-0.64483064
132	0xbd91f7a8	-0.07127315
133	0x3e41e65e	0.18935534
134	0xbf1b480b	-0.60656804
135	0xbd1c9dc9	-0.038236413
136	0x3e676be9	0.22599758
137	0xbed6863a	-0.41899282
138	0xbd8e9b41	-0.06963206
139	0x3e90d860	0.2829008
140	0xbedd77c5	-0.4325544
141	0x3e3c4ad8	0.18387926
142	0x3e5434ac	0.20723218
143	0xbfba67d3	-1.4562935
144	0xbd6222ed	-0.05520909
145	0x3df3a9a1	0.118975885
146	0xbf853200	-1.0405884
147	0xbc37c40b	-0.011216174
148	0x3d8cd21e	0.06876014
149	0xbf962092	-1.172869
150	0xbd9ad2c4	-0.075597316
151	0x3da2655f	0.07929491
152	0xbf92291f	-1.1418799
153	0xbc3f5cd9	-0.011679851
154	0x3e2ade01	0.1668625
155	0xbf5794cc	-0.8421142
156	0x3dd29478	0.102822244
157	0x3e3de193	0.18543081
158	0xbf1d1f61	-0.61376005
159	0x3e2bb217	0.16767155
160	0xbc8aefa7	-0.016959978
161	0xbf6eeed0	-0.9333315
162	0x3e7a33c8	0.24433815
163	0xbdd69d1e	-0.104791865
164	0xbf4d7b3e	-0.8026618
165	0x3d179f6e	0.03701728
166	0x3e58578c	0.21127146
167	0xbeb89122	-0.36048228
168	0x3d8ba785	0.06819061
169	0x3e74e15f	0.23914097
170	0xbe762206	-0.24036416
171	0xbd99751c	-0.0749304
172	0x3ddd6f34	0.10812226
173	0xbea8806b	-0.32910475
174	0x3dea2b88	0.11434084
175	0xbcdc9009	-0.02692415
176	0xbf11da7b	-0.56974
177	0x3e0aecd5	0.13566907
178	0x3e715036	0.23565754
179	0xbdbf7da3	-0.09350135
180	0x3d531f5c	0.05154358
181	0x3e28e10e	0.16492102
182	0xbce4ba1c	-0.027920775
183	0x3dd4f46f	0.103981845
184	0x3cd7c1a0	0.026337445
185	0xbdd838d3	-0.10557713
186	0x3d0f99e2	0.035058863
187	0xbe19366d	-0.14962168
188	0xbe89c215	-0.26905885
189	0x3d41cc22	0.047313817
190	0xbdc438c7	-0.09581142
191	0x3dd24693	0.10267367
192	0x3cc4c79f	0.024020968
193	0xbe9f87cd	-0.31158295
194	0x3ee46a03	0.4461213
195	0xbd67a894	-0.056557253
196	0xbe940741	-0.28911784
197	0x3f132b48	0.57487917
198	0x3ea6aa6e	0.32551903
199	0xbe107352	-0.14106491
200	0x3f37a0df	0.71729845
201	0x3ea078ab	0.31342062
202	0xbe2da7e6	-0.1695858
203	0x3f5a4489	0.85260826
204	0xbe159a99	-0.14609756
205	0xbdd529de	-0.10408376
206	0x3d4e3a59	0.050348613
207	0xbe6eecae	-0.23332474
208	0xbdf167b1	-0.11787356
209	0xbd541dc4	-0.0517862
210	0xbdf5131c	-0.119665354
211	0x3cbb5333	0.02286682
212	0xbeb9cada	-0.36287576
213	0xbdb9f0b0	-0.090791106
214	0xbdd6cff6	-0.10488884
215	0xbee154c5	-0.44009987
216	0xbe0ce822	-0.13760427
217	0xbe44b3be	-0.19209191
218	0x3ea8b871	0.32953218
219	0xbe648fd7	-0.22320496
220	0x3c3fe579	0.011712425
221	0xbba26c4e	-0.0049567586
222	0xbb1c7ad2	-0.0023876918
223	0x3d9eca86	0.07753472
224	0xbe53ad69	-0.2067162
225	0x3c8c2660	0.017108142
226	0x3dd7413b	0.105104886
227	0xbf2120f3	-0.629409
228	0xbe1fa724	-0.15591103
229	0xbe1e9ac0	-0.1548872
230	0x3ee6906e	0.45032066
231	0xbdcc2154	-0.09967294
232	0xbe502762	-0.20327523
233	0x3ebc1cba	0.36740667
234	0xbdd6342f	-0.10459172
235	0xbe16583d	-0.14682098
236	0x3f15affe	0.5847167
237	0xbd8805a0	-0.06641698
238	0x3be8a96c	0.007100275
239	0x3f356d8d	0.70870286
240	0xbd00e088	-0.03146413
241	0xbe4f4e0d	-0.20244618
242	0x3f25d1e0	0.6477337
243	0xbe6df63c	-0.23238462
244	0xbe049788	-0.1294843
245	0x3f1b6b42	0.6071054
246	0xbefc1db7	-0.4924142
247	0xbf0e10ca	-0.5549437
248	0x3f28347d	0.6570509
249	0xbf0d4983	-0.55190295
250	0xbf404537	-0.75105613
251	0x3f009f64	0.5024321
252	0xbd43d230	-0.047807872
253	0xbd9d11b0	-0.07669389
254	0xbd3937f5	-0.04521938
255	0xbdb45998	-0.08806151

onnx::LSTM_249 f4 [1, 256, 64]
0	0xbe32d1f9	-0.1746291
1	0xbdb13dc2	-0.086543575
2	0x3e678e6c	0.22612923
3	0xbc686d9f	-0.014186292
4	0xbe006a2a	-0.12540498
5	0x3f0895a4	0.53353333
6	0xbde7c6de	-0.11317228
7	0x3e7be610	0.2459948
8	0x3c8a882b	0.016910633
9	0xbe25e3ca	-0.16200176
10	0x3e1ac81c	0.15115398
11	0x3b89d317	0.004206072
12	0xbea8cde9	-0.32969597
13	0xbec8ae9e	-0.39195722
14	0xbdac0db3	-0.084010504
15	0xbece5e2f	-0.4030623
16	0xbea9a864	-0.33136284
17	0xbf050b62	-0.51970494
18	0xbe7ccfc5	-0.24688633
19	0xbe8a5730	-0.27019644
20	0xbd813f7f	-0.06310939
21	0xbd3c8b38	-0.046031207
22	0x3f16cc7f	0.58905786
23	0x3d3bc85b	0.04584537
24	0x3eb0c8a1	0.34528068
25	0xbaba21fe	-0.0014200804
26	0x3e3c979d	0.18417211
27	0xbd8e6915	-0.069536366
28	0x3d18d433	0.037311744
29	0xbecb3eb2	-0.3969627
30	0x3d76a58f	0.060216483
31	0xbf263e41	-0.6493874
32	0xbe7ed5b4	-0.24886209
33	0xbef4384c	-0.476992
34	0xbec128fa	-0.37726575
35	0xbe1d2dd2	-0.1534951
36	0xbeb32daf	-0.3499579
37	0x3e46e29d	0.19422384
38	0x3d8d5264	0.069004804
39	0xbe074957	-0.1321157
40	0x3f456237	0.7710299
41	0x3e829cb2	0.25510174
42	0xbe72194c	-0.23642462
43	0xbdd6f246	-0.10495429
44	0xbe0a42f2	-0.135021
45	0x3d970cb6	0.07375471
46	0xbd87a085	-0.066224135
47	0x3e2c2f77	0.16814981
48	0xbdb2cd27	-0.08730536
49	0xbdb86d2b	-0.09005197
50	0xbe5ea5be	-0.21742913
51	0x3ecccff9	0.4000242
52	0x3e8ee201	0.27906802
53	0xbe82c850	-0.2554345
54	0x3d9975b4	0.07493153
55	0x3dc6df2b	0.09710535
56	0x3d8645fd	0.06556318
57	0xbf022703	-0.5084078
58	0x3e901eda	0.28148538
59	0xbe02e0b7	-0.12781034
60	0x3c371f22	0.011176856
61	0xbebca979	-0.36848047
62	0x3d4b8c11	0.049694125
63	0x3e2b2307	0.1671258
64	0xbee37d33	-0.44431457
65	0xbe8c38be	-0.2738704
66	0x3ed5e7a4	0.4177829
67	0x3e568d40	0.2095232
68	0xbf21c3de	-0.63189495
69	0x3f16f0ab	0.5896098
70	0xbe823532	-0.2543121
71	0x3e931ee2	0.287345
72	0x3f0e0f23	0.55491847
73	0xbec1822e	-0.37794632
74	0xbed3f241	-0.41395763
75	0xbf1b38d7	-0.60633606
76	0x3e4020eb	0.18762557
77	0x3e027fda	0.12744084
78	0x3ee8a94c	0.45441663
79	0xbec5d490	-0.38638735
80	0xbf0d5805	-0.5521243
81	0x3e99b730	0.30022573
82	0x3f0b5dc4	0.5443995
83	0xbe311379	-0.17292584
84	0xbf0bb9cb	-0.5458037
85	0x3f16f702	0.58970654
86	0x3ed88c85	0.42294708
87	0xbdd80795	-0.10548321
88	0x3d7aec46	0.061260484
89	0xbee65a9c	-0.44991004
90	0xbe6950c7	-0.2278472
91	0x3de7f99a	0.113269046
92	0x3e7bf609	0.24605574
93	0x3dea5f33	0.11443939
94	0xbd851e0a	-0.0649987
95	0xbe189f57	-0.14904533
96	0xbecfa334	-0.40554202
97	0xbe8f5f3d	-0.2800235
98	0xbf1667c5	-0.5875209
99	0xbb1abfb5	-0.0023612801
100	0xbea29f22	-0.31762034
101	0x3de7d1f1	0.1131934
102	0x3e5b812d	0.21435995
103	0xbddc095a	-0.10743971
104	0x3f04f60e	0.5193795
105	0xbe80b127	-0.25135157
106	0xbe77b67e	-0.24190709
107	0xbe3b3124	-0.18280464
108	0xbe4bee8d	-0.19915219
109	0x3d21ce4e	0.039503388
110	0xbe5acdce	-0.21367571
111	0x3ec3de76	0.38255662
112	0x3d94f48f	0.07273208
113	0xbee52eb1	-0.44762185
114	0xbe2518bd	-0.16122718
115	0x3d435d12	0.04769618
116	0xbe2acabe	-0.16678903
117	0x3daa96c0	0.083295345
118	0x3cb79ebd	0.02241456
119	0xbe3676b2	-0.17818716
120	0x3e466963	0.1937614
121	0xbe8b1782	-0.27166373
122	0xbe8b2f9a	-0.27184755
123	0x3e5719ae	0.2100589
124	0x3ed4f763	0.4159499
125	0x3dbc061f	0.09180855
126	0x3eabdf0a	0.33568603
127	0x3e57b44f	0.21064876
128	0xbc9decae	-0.019277897
129	0x3e084852	0.13308838
130	0xbea11aff	-0.3146591
131	0x3ec6068f	0.3867688
132	0x3e0b1d79	0.13585462
133	0xbcb28866	-0.021793555
134	0xbed1ddb2	-0.40989453
135	0xbe8f4886	-0.27985018
136	0x3ae8b9e0	0.001775559
137	0x3e6b520c	0.22980517
138	0xbec99c62	-0.39377123
139	0xbe7a7ba1	-0.24461223
140	0x3ce6cb09	0.028172987
141	0xbf07c21e	-0.53030574
142	0x3d3e26a3	0.046423566
143	0x3e60e152	0.21960953
144	0x3d9600a6	0.073243424
145	0x3dc41414	0.09574142
146	0x3ed3d729	0.41375092
147	0xbf7536ec	-0.9578693
148	0x3e84783d	0.25872985
149	0x3e784728	0.24245894
150	0xbe0190a9	-0.1265284
151	0x3c0b36a2	0.008496912
152	0x3e8e35c8	0.27775407
153	0x3d9ec8e8	0.077531636
154	0x3e84b9b4	0.2592293
155	0xbe084f82	-0.1331158
156	0xbe5d689c	-0.21621937
157	0xbe0815ad	-0.13289519
158	0xbd0bee5c	-0.034162864
159	0xbdabd6ef	-0.08390605
160	0xbcea6e50	-0.028617054
161	0xbe956208	-0.29176354
162	0xbd97c689	-0.074109145
163	0xbdc98254	-0.09839311
164	0xbe9f8656	-0.31157178
165	0x3dd926f0	0.1060313
166	0x3e87a615	0.26493898
167	0x3e0c5f00	0.13708115
168	0x3db13810	0.08653271
169	0xbf3efb1c	-0.7460191
170	0xbeb226a0	-0.34795094
171	0xbe906678	-0.28203177
172	0x3e08fd40	0.13377857
173	0x3e43dc5f	0.19127034
174	0xbe06e20e	-0.1317217
175	0x3dd49ba4	0.103812486
176	0x3ceefc34	0.029172994
177	0xbe2c54e9	-0.16829266
178	0x3c1ab1ad	0.009441775
179	0xbe458e8f	-0.19292663
180	0x3e68f061	0.22747947
181	0x3d5b510d	0.053544093
182	0x3d74a1ad	0.0597245
183	0x3e17aa0a	0.14810959
184	0x3e366da3	0.1781526
185	0x3e23d7d2	0.16000298
186	0xbe64578f	-0.22299026
187	0xbf18146f	-0.5940618
188	0xbed98c9a	-0.42490083
189	0x3d93ee0a	0.07223137
190	0xbd8ce84d	-0.06880245
191	0x3e8b045d	0.27151766
192	0x3ba1e1d9	0.004940253
193	0xbdf7ffa5	-0.12109307
194	0xbd93a62d	-0.0720943
195	0xbe6ba118	-0.23010671
196	0xbee0a312	-0.43874413
197	0x3f3018c7	0.6878781
198	0x3e8114fb	0.2521132
199	0x3d9f3993	0.07774653
200	0x3e8a0451	0.26956418
201	0x3de306d2	0.11085285
202	0xbe442649	-0.1915523
203	0x3c6f8f05	0.014621501
204	0xbe3d12b9	-0.18464173
205	0x3d8e984c	0.06962642
206	0x3eeb68cf	0.459784
207	0xbf2d94da	-0.67805254
208	0xbebd8e29	-0.37022522
209	0x3d76bc76	0.060238324
210	0x3e56d3ae	0.20979187
211	0xbde4a7e8	-0.11164838
212	0xbeb633b2	-0.35586315
213	0x3edabb7a	0.42721158
214	0x3e0cc923	0.13748603
215	0xbe443386	-0.1916028
216	0x3d2dec5f	0.04246175
217	0xbdcbb6ba	-0.09946962
218	0xbe70a3d2	-0.23499992
219	0x3e9a9806	0.3019411
220	0xbd929247	-0.071568064
221	0x3ef97dd9	0.48728827
222	0x3c8fb1b5	0.017540792
223	0xbc9b2c61	-0.01894206
224	0xbe90402d	-0.28173962
225	0x3e6e3bd0	0.23265004
226	0x3caa3157	0.02077548
227	0xbd1eb2f5	-0.038744885
228	0xbf062861	-0.52405363
229	0x3ebc4eb5	0.367788
230	0x3f041f89	0.5161062
231	0x3e9fa30c	0.31179082
232	0x3f0e53ad	0.5559643
233	0x3e1ea3dc	0.15492195
234	0xbe2cc761	-0.16872932
235	0x3e355d47	0.17711364
236	0x3e7cd844	0.24691874
237	0x3e22bd4e	0.15892527
238	0x3c5ac5cd	0.013352823
239	0x3d60392f	0.054742035
240	0x3de5869a	0.11207314
241	0x3ee1fbb4	0.44137347
242	0x3e3fcdbc	0.18730825
243	0x3cb2cb5a	0.021825481
244	0xbe3dbc6f	-0.18528913
245	0x3b82f892	0.003996917
246	0xbe9a0694	-0.30083144
247	0xbe01eb34	-0.12687379
248	0xbe1cc497	-0.15309368
249	0x3c7cfe86	0.0154415425
250	0xbe1b539c	-0.15168613
251	0xbe0a40b3	-0.13501243
252	0xbdf90b52	-0.12160362
253	0xbee14f66	-0.4400589
254	0x3dc20f81	0.094756134
255	0x3ec4bf06	0.3842699

onnx::LSTM_250 f4 [1, 512]
0	0xbdfdc87c	-0.12391755
1	0x3dec6a47	0.11543708
2	0x3d48e7a5	0.04904904
3	0xbe3f25f1	-0.18666817
4	0x3e32d186	0.1746274
5	0x3de1a23e	0.11017273
6	0x3b89963b	0.004198817
7	0xbed8a5ed	-0.4231409
8	0x3c0a0e46	0.008426255
9	0x3b337855	0.0027384956
10	0xbb8c9af0	-0.004290931
11	0x3dcaa2fc	0.09894368
12	0xbe83cdd5	-0.25742975
13	0x3d855505	0.06510357
14	0xbcd87e4d	-0.026427412
15	0xbc9bec80	-0.01903367
16	0x3e57bebb	0.21068852
17	0xbdac56e4	-0.084150106
18	0xbdbed3b8	-0.09317726
19	0x3e18e0d7	0.1492952
20	0xbc724f86	-0.014789468
21	0xbd00341a	-0.031299688
22	0xbb6fffe1	-0.0036621022
23	0x3d3b544f	0.0457347
24	0xbe16365b	-0.14669172
25	0xbc61cc5a	-0.013781631
26	0xbd4ab2f6	-0.049487077
27	0x3dcd26ac	0.10017142
28	0xbe8c81cd	-0.2744278
29	0xbd576d1c	-0.05259429
30	0x3cc5cfd8	0.02414696
31	0xbd38815d	-0.045045245
32	0xbe18b3cd	-0.14912339
33	0xbd2761cf	-0.040864762
34	0x3e10b129	0.14130081
35	0x3d86d275	0.0658311
36	0x3dc8beda	0.09802027
37	0xbe9d8986	-0.30768985
38	0xbe4686b1	-0.19387318
39	0xbd8b9844	-0.06816152
40	0xbcb70583	-0.022341495
41	0x3e457bf9	0.19285573
42	0x3d673aa3	0.056452405
43	0xbe957139	-0.29187945
44	0xbdadcc67	-0.08486252
45	0xbe125ff0	-0.1429441
46	0x3e86b3ed	0.26309147
47	0x3e4e582d	0.20150824
48	0x3b29de70	0.0025919937
49	0xbd69f229	-0.057115708
50	0x3dd63798	0.104598224
51	0xbe89eba6	-0.26937598
52	0x3e3102db	0.17286246
53	0x3e202718	0.15639913
54	0x3e8ff7f3	0.28118858
55	0xbe970113	-0.29493007
56	0xbe16ef27	-0.14739667
57	0xbed5c05a	-0.41748315
58	0xbe1d51a6	-0.15363178
59	0x3d49264d	0.049108792
60	0x3d56e57d	0.05246495
61	0xbe07b61c	-0.13253063
62	0xbca5dc34	-0.020246603
63	0xbbb39127	-0.00547995
64	0xbdb75764	-0.08952215
65	0x3cb9a0e1	0.02265972
66	0xbdff7335	-0.12473146
67	0xbe878fa7	-0.26476786
68	0x3c849071	0.016182156
69	0xbd6621ef	-0.056184705
70	0xbd7b8adc	-0.061411723
71	0xbeaf9a8b	-0.34297594
72	0x3db4c908	0.08827406
73	0x3ace6583	0.0015746806
74	0x3dc273cb	0.09494742
75	0x3d9b77b3	0.0759119
76	0xbe451055	-0.19244511
77	0x3e6b8be9	0.2300259
78	0x3e3acc2f	0.18241952
79	0xbd808ffb	-0.06277462
80	0x3ddb4c0f	0.107078664
81	0xbe369577	-0.17830454
82	0x3ca02712	0.01954988
83	0x3e268651	0.16262175
84	0xbdf5b504	-0.119974166
85	0xbd716cd5	-0.05894168
86	0x3bf4f73c	0.0074757617
87	0x3d74319f	0.059617635
88	0xbe2bb326	-0.16767558
89	0xbcacaa65	-0.021077344
90	0xbc2db2c1	-0.0106017
91	0x3d3e7502	0.046498306
92	0xbe4bc728	-0.19900191
93	0x3d1308ad	0.035896946
94	0xbd4e55e5	-0.050374884
95	0xbe1c56d5	-0.15267499
96	0xbe342692	-0.17592838
97	0xbe818e12	-0.25303704
98	0x3e597198	0.21234739
99	0x3d652718	0.055945486
100	0x3dcf6324	0.101263314
101	0xbea26f9f	-0.31725785
102	0xbcdb8086	-0.026794683
103	0x3df8d39c	0.12149736
104	0xbe0557b6	-0.1302174
105	0x3ec2243f	0.3791828
106	0xbd39f0bd	-0.0453956
107	0xbe79d263	-0.24396662
108	0x3e0b231f	0.13587616
109	0xbe9a59b6	-0.3014657
110	0x3e913ff7	0.28369114
111	0x3dd0a37b	0.101874314
112	0xbd39f701	-0.045401577
113	0x3e023962	0.12717202
114	0x3dccbc2f	0.09996831
115	0xbea524cf	-0.32254645
116	0x3def35a9	0.11680157
117	0x3df67128	0.120333016
118	0x3d93f86b	0.07225116
119	0xbec718e7	-0.38886186
120	0xbe0bcac8	-0.13651574
121	0xbedfe287	-0.43727514
122	0xbe906afb	-0.2820662
123	0xbe0cf0e1	-0.13763763
124	0xbdaecd96	-0.08535306
125	0xbe251600	-0.16121674
126	0xbd82ab75	-0.06380359
127	0x3d583d0d	0.052792598
128	0xbc2e8edf	-0.01065418
129	0xbea9a46d	-0.3313326
130	0xbdba0912	-0.09083761
131	0xbdfcaad9	-0.12337274
132	0x3e327b7e	0.17429921
133	0x3b4de8dc	0.0031419313
134	0xbd629b13	-0.05532367
135	0xbf2f6e58	-0.68527746
136	0xbec08c74	-0.37607157
137	0xbc8f2e5b	-0.017478159
138	0xbe37d6d6	-0.17953047
139	0x3e2a36fd	0.16622539
140	0xbe7d7e35	-0.24755175
141	0x3e26bd99	0.16283263
142	0xbd6ee7f6	-0.058326684
143	0xbcc01a8e	-0.023450162
144	0x3d592454	0.05301316
145	0xbe772c35	-0.24137957
146	0xbe00273b	-0.12514965
147	0xbde7a0b4	-0.113099486
148	0xbe4b4d7d	-0.19853778
149	0xbd9645c4	-0.073375255
150	0xbcead183	-0.028664356
151	0x3c45d9cb	0.012075852
152	0xbf2befe8	-0.6716294
153	0xbe43ef0f	-0.19134162
154	0x3c554975	0.013018002
155	0x3dbb7721	0.091535814
156	0xbf559d94	-0.8344357
157	0xbe4d849e	-0.2007012
158	0xbdbcb172	-0.092135325
159	0xbea290ec	-0.31751192
160	0xbe342b87	-0.1759473
161	0xbed66b8e	-0.41878933
162	0xbe28c2a4	-0.164805
163	0xbc69fc9e	-0.01428142
164	0x3c29bc61	0.010359854
165	0xbd7b6b0a	-0.061381377
166	0xbe5abd15	-0.21361192
167	0x3dd0930b	0.10184296
168	0xbdfcbc38	-0.123405874
169	0xbd6e1152	-0.058121987
170	0xbb9163ab	-0.00443693
171	0xbeadca24	-0.33943284
172	0x3ad31b0b	0.0016106082
173	0xbe0fb6e6	-0.14034614
174	0xbe119a5e	-0.14219043
175	0xbe09e5a5	-0.13466509
176	0xbd785158	-0.06062445
177	0xbcf596b7	-0.029979093
178	0x3dbcd9e6	0.09221248
179	0xbf03ac79	-0.5143505
180	0xbddd5990	-0.10808098
181	0x3d79468b	0.06085829
182	0xbaa7ea44	-0.0012810905
183	0xbec9d6c3	-0.39421663
184	0xbdba449d	-0.09095118
185	0xbf14a1d9	-0.5805946
186	0xbdcce9f7	-0.10005563
187	0x3d46c0cf	0.04852372
188	0x3d40b7fb	0.047050457
189	0xbd2b7490	-0.04185921
190	0x3c29cc3b	0.010363634
191	0xbd58ea60	-0.052957892
192	0xbd09d3c4	-0.03364922
193	0xbe12afee	-0.14324924
194	0xbe532b9a	-0.20622101
195	0x3d9c47e0	0.076308966
196	0x3dd5df52	0.104429856
197	0xbdec26d6	-0.11530845
198	0xbdb10626	-0.08643751
199	0xbe4da8b0	-0.2008388
200	0x3e6aacbb	0.22917454
201	0xbdee4b72	-0.11635484
202	0x3e270068	0.16308749
203	0xbcda9f00	-0.026687145
204	0xbd895aea	-0.067067936
205	0xbe04b60e	-0.12960073
206	0xbe2be2e6	-0.16785774
207	0xbd8139e3	-0.06309869
208	0x3dfcbe16	0.123409435
209	0x3c12c7ca	0.008958766
210	0xbac0cf1c	-0.0014710161
211	0x3d2c08e9	0.042000685
212	0x3d6f68e2	0.058449633
213	0x3abaadf2	0.0014242514
214	0xbdd17a31	-0.10228384
215	0x3dc6a50b	0.09699448
216	0xbe494974	-0.19656926
217	0xbd80fefc	-0.062986344
218	0x3ccedb5b	0.025251081
219	0x3d9dc1cf	0.07702982
220	0xbea4d672	-0.3219486
221	0x3e32922f	0.17438577
222	0x3c5dc587	0.013535864
223	0x3e3f9df8	0.18712604
224	0xbd973a2a	-0.07384141
225	0xbd2bb367	-0.04191914
226	0xbd0dacce	-0.034588628
227	0xbafe820b	-0.0019417418
228	0x3c8b8fe2	0.017036382
229	0x3d1da6ff	0.038489338
230	0x3d4086a5	0.047003407
231	0x3d23b2a9	0.039965305
232	0x3de3b579	0.111185975
233	0x3d9b2a7e	0.07576464
234	0xbdbcf0fe	-0.09225653
235	0x3e622e17	0.22087894
236	0xbdebc6f7	-0.11512559
237	0x3c076464	0.008263681
238	0x3ab00ef1	0.0013432187
239	0xbd0fd82a	-0.03511826
240	0xbdec9c8d	-0.11553297
241	0x3d550fea	0.05201713
242	0xbc570b34	-0.01312523
243	0x3d803f01	0.06262017
244	0xbe120fb0	-0.14263797
245	0xbe87ab01	-0.26497653
246	0xbe637705	-0.22213371
247	0x3ddb8e76	0.10720532
248	0x3e996168	0.29957128
249	0x3d9f2e2b	0.07772478
250	0xbd828217	-0.06372469
251	0x3c9c69f9	0.0190935
252	0x3c835edd	0.016036445
253	0xbd33be84	-0.04388286
254	0xbe2ab29a	-0.16669694
255	0x3e17dba5	0.14829881
